Checkpoints/evsrnet_t_x4.pth (torch, 35295 bytes, 24 tensors)

conv1.weight f4 [8, 3, 3, 3]
0	0xbcb32f03	-0.021873003
1	0xbe34d007	-0.17657481
2	0x3e2ae9e0	0.16690779
3	0x3dee4d66	0.11635856
4	0x3e350c11	0.17680384
5	0x3e0d53b0	0.13801455
6	0xbdfe7040	-0.12423754
7	0x3e0d793e	0.13815781
8	0xbdbaaff8	-0.091155946
9	0x3e0bf495	0.1366752
10	0x3d18d9ce	0.03731709
11	0xbc8b77cd	-0.017024899
12	0xbde283aa	-0.11060269
13	0xbe3ddf92	-0.18542317
14	0x3d61c757	0.055121746
15	0xbcbb85e9	-0.022891002
16	0x3d8c6094	0.06854358
17	0xbb737fd2	-0.0037155044
18	0xbddc209b	-0.107484065
19	0xbe1fe9da	-0.15616551
20	0x3dc8247d	0.097725846
21	0x3db84cf2	0.08999051
22	0xbc5f8358	-0.013642155
23	0x3e039bbd	0.12852378
24	0x3c05ab6f	0.008158549
25	0x3d9e1e52	0.07720627
26	0x3d3b28d6	0.04569324
27	0x3c564700	0.013078451
28	0xbd3a6db3	-0.045514774
29	0xbd7ef7a3	-0.062247884
30	0x3c823df3	0.01589868
31	0x3e3f01fe	0.18653104
32	0xbdc9dbdf	-0.0985639
33	0xbdfe83a4	-0.12427452
34	0x3e5e8fea	0.21734586
35	0x3d891392	0.06693186
36	0x3e2f916d	0.1714532
37	0x3e53ac45	0.20671184
38	0x3e221555	0.1582845
39	0xbdd83ba8	-0.105582535
40	0x3daffd88	0.08593279
41	0x3d9fceb9	0.07803101
42	0x3c2484bf	0.010041415
43	0xbdab3b13	-0.08360877
44	0xbc0159a8	-0.007894911
45	0xbdcd0389	-0.1001044
46	0x3e344b83	0.1760693
47	0xbd3b4290	-0.045717776
48	0x3d8af5e6	0.06785183
49	0x3d4a14fb	0.049336415
50	0xbd929c65	-0.07158736
51	0xbd768e28	-0.060194165
52	0x3d9f2289	0.07770259
53	0x3de13929	0.109972306
54	0xbb843a46	-0.004035267
55	0xbd3cc45e	-0.046085708
56	0x3e034362	0.12818673
57	0xbe2cd3c7	-0.16877662
58	0x3e0ff98f	0.14060043
59	0x3d855f98	0.06512374
60	0x3ddc820a	0.107669905
61	0xbe19a35d	-0.15003724
62	0x3e327717	0.17428242
63	0xbd371138	-0.044694155
64	0x3e18ea21	0.14933063
65	0x3e31a5bd	0.1734838
66	0x3e1b9e38	0.15197074
67	0x3dcf6fa4	0.10128716
68	0xba96a5c1	-0.001149349
69	0x3d1d4e7c	0.038404927
70	0xbd60ae50	-0.054853737
71	0xbda0a059	-0.07843084
72	0x3def478b	0.116835676
73	0x3d9da95e	0.0769832
74	0x3e0a587f	0.13510321
75	0x3e13b833	0.14425735
76	0x3d8d3ed9	0.06896753
77	0xbd72432d	-0.059146095
78	0xbda14c1a	-0.07875843
79	0xbc3725ba	-0.011178428
80	0x3e35df9d	0.17761083
81	0x3cfd2e84	0.03090597
82	0x3d0a302e	0.033737354
83	0xbe22938d	-0.15876599
84	0x3e18ce28	0.14922392
85	0x3e4652e5	0.19367559
86	0x3e12725d	0.14301439
87	0x3dc17f99	0.094481654
88	0x3e515648	0.2044307
89	0xbde5711c	-0.112032145
90	0xbe19e6e6	-0.15029487
91	0xbdabc771	-0.0838765
92	0x3d6d42ef	0.05792516
93	0x3e513e1e	0.20433852
94	0x3de7d0cf	0.11319124
95	0x3e1cbebe	0.15307137
96	0xbdeb5193	-0.114901684
97	0x3e0a286d	0.13491984
98	0xbd03c84b	-0.032173436
99	0x3e277fab	0.16357295
100	0xbd8a6359	-0.0675723
101	0xbd984e53	-0.07436814
102	0xbd30d7db	-0.043174606
103	0xbd16f494	-0.03685434
104	0xbdd4ced1	-0.103910096
105	0x3d4e74ab	0.050404232
106	0xbd3bb229	-0.045824204
107	0xbdeae78d	-0.11469946
108	0xbdc5b05c	-0.096527785
109	0x3c0d38e8	0.008619525
110	0xbd7635b3	-0.060109805
111	0x3e1e0fe8	0.15435755
112	0x3dc0fb6e	0.094229564
113	0x3dbcb318	0.09213847
114	0x3d15f9b7	0.0366151
115	0x3e6ed454	0.23323184
116	0x3c315c72	0.010825263
117	0xbe01f84a	-0.12692371
118	0x3e18d892	0.14926365
119	0x3b8cb167	0.004293609
120	0x3e1b2737	0.15151678
121	0xbdd4f0bf	-0.10397481
122	0xbe290347	-0.16505156
123	0x3d60156e	0.054707937
124	0xbe051e52	-0.12999848
125	0xbd31f009	-0.043441806
126	0x3d924bba	0.0714335
127	0xbe083a8e	-0.13303587
128	0x3da1ce18	0.079006374
129	0x3daf7499	0.08567161
130	0x3df5490a	0.11976822
131	0x3ccaecf0	0.024771184
132	0x3dcd6bac	0.100303024
133	0x3d5efbc9	0.05443934
134	0x3dfb78cb	0.12278899
135	0x3e735a3f	0.23764895
136	0x3d4a6fba	0.049422957
137	0xbca9d850	-0.020733029
138	0x3dd7a300	0.10529137
139	0xbd8840ed	-0.066530086
140	0xbdd66cc1	-0.10469962
141	0x3e6eac45	0.23307903
142	0x3d7ea56d	0.06216948
143	0x3d2cc124	0.04217638
144	0x3dfeab71	0.124350436
145	0x3e0c67cf	0.13711475
146	0x3d8bf025	0.06832913
147	0x3da7b940	0.081896305
148	0xbe10c065	-0.14135893
149	0x3df07f27	0.117430024
150	0xbcc447eb	-0.023960074
151	0x3cbd3bad	0.023099745
152	0xbd35da30	-0.044397533
153	0xbe1e294f	-0.15445445
154	0x3d105b1d	0.035243142
155	0xbdc43697	-0.09580725
156	0xbde56b21	-0.11202074
157	0xbdbc3065	-0.09188918
158	0x3dfcb974	0.1234006
159	0x3d8e7205	0.06955341
160	0x3d7a025e	0.061037414
161	0xbd178012	-0.03698737
162	0x3cf93ad8	0.030423567
163	0x3df36202	0.11883928
164	0x3e1d4bcc	0.15360945
165	0xbdc84879	-0.09779448
166	0xbd4c2ce9	-0.049847517
167	0xbb19bc7a	-0.0023458288
168	0xbe0f2b49	-0.13981356
169	0xbd9c2a84	-0.07625297
170	0x3da382ff	0.0798397
171	0xbdaf6ee1	-0.0856607
172	0xbbe2c31f	-0.006920233
173	0xbe2471fa	-0.16059104
174	0xbe1e6dd4	-0.15471584
175	0xbd73f702	-0.059561737
176	0x3e468495	0.19386514
177	0x3d983ad8	0.074330986
178	0x3da5bb48	0.08092362
179	0xbe165020	-0.14679003
180	0xbca96c76	-0.020681601
181	0xbd954ce9	-0.0729006
182	0xbdf92da3	-0.12166908
183	0x3c0d961d	0.008641747
184	0x3e62370e	0.22091314
185	0x3c2e2cba	0.010630781
186	0xbddd88f2	-0.10817136
187	0x3e5a768a	0.21334282
188	0x3e850440	0.25979805
189	0xbcc50503	-0.024050241
190	0xbe18e888	-0.14932454
191	0x3d85252f	0.06501233
192	0x3db855be	0.09000729
193	0xbda4e668	-0.08051759
194	0xbc05330d	-0.008129847
195	0xbe3bd1f1	-0.18341805
196	0xbe2f5b5e	-0.17124698
197	0xbd38118f	-0.04493862
198	0xbda8e90b	-0.082475744
199	0xbe05b7a4	-0.13058335
200	0xbd874045	-0.06604055
201	0xbd837292	-0.06418337
202	0xbe446912	-0.19180706
203	0xb953ed78	-0.00020210992
204	0x3de1f084	0.11032203
205	0xbc8fa1b3	-0.017533159
206	0xbcaf8a1e	-0.021428164
207	0xbd0c9f0d	-0.03433137
208	0xbdf84809	-0.121231146
209	0xbd1d9630	-0.038473308
210	0xbc8eb729	-0.017421322
211	0xba2de415	-0.0006633413
212	0xbd015e6c	-0.03158419
213	0xbc2a39db	-0.01038977
214	0x3e1ded0b	0.15422456
215	0x3d9ca817	0.07649248

conv1.bias f4 [8]
0	0xbcce3c4c	-0.025175236
1	0x3e2ce081	0.16882516
2	0x3c928d07	0.017889513
3	0xbdb84c11	-0.089988835
4	0xbd11cca1	-0.03559554
5	0x3d9eab89	0.077475615
6	0x3d8346e5	0.064100064
7	0xbe206b39	-0.15665902

res1.conv1.weight f4 [8, 8, 3, 3]
0	0x3d3f5444	0.04671122
1	0xbdb0bf22	-0.08630206
2	0x3d4ad592	0.049520083
3	0xbd1495af	-0.036275562
4	0x3d870643	0.06592991
5	0x3d949232	0.07254447
6	0xbd99c11a	-0.07507534
7	0x3cc392e6	0.023873758
8	0x3d3b4d60	0.045728087
9	0x3d093dec	0.03350632
10	0x3cf63604	0.030055054
11	0xbd9f900c	-0.07791147
12	0x3d75d92e	0.06002157
13	0xbd3624b0	-0.04446858
14	0xbdbde0b4	-0.09271374
15	0x3de126c0	0.10993719
16	0x3cff6e88	0.031180635
17	0xbdd90537	-0.10596698
18	0x3dab4969	0.08363611
19	0x3d72359e	0.059133165
20	0xbd500da3	-0.050794255
21	0x3d91e6e6	0.071241185
22	0xbdbf1906	-0.09330945
23	0x3da18b96	0.07887952
24	0x3d99f2ec	0.07517037
25	0x3c25992e	0.010107322
26	0xbda8da4a	-0.0824476
27	0xbd41dd7a	-0.047330357
28	0xbe02c421	-0.1277013
29	0xbddf1cf2	-0.10894193
30	0xbd7f1bd2	-0.06228239
31	0xbb4bf4ce	-0.0031121257
32	0x3c345a3d	0.011007843
33	0x3d3dd569	0.046346102
34	0xbddaf021	-0.10690332
35	0x3bc0647d	0.005871354
36	0x3d1ec969	0.0387663
37	0x3d6ce82d	0.057838608
38	0x3dbfe20f	0.09369289
39	0xbdab9c5e	-0.08379434
40	0xbd46dfc1	-0.048553232
41	0x3c951e57	0.018202944
42	0xbd21cd73	-0.039502572
43	0xbd1925ea	-0.037389673
44	0xbd62b630	-0.05534953
45	0x3bd9a3fc	0.006641863
46	0xbdc86ff2	-0.09786977
47	0xbcdbf796	-0.026851457
48	0xbd174af7	-0.036936726
49	0x3d9afe64	0.075680524
50	0xbe126e63	-0.14299922
51	0x3d329273	0.043596696
52	0xbdc2d7d7	-0.095138244
53	0xbd61375c	-0.054984435
54	0x3d029836	0.03188344
55	0x3e2517a0	0.16122293
56	0x3c1239ea	0.008924941
57	0x3e3404c4	0.17579943
58	0x3d474118	0.048646063
59	0x3da75655	0.081707634
60	0x3d8d23d2	0.06891598
61	0x3cd7a666	0.026324462
62	0xbdbb5771	-0.091475375
63	0xbd5d6983	-0.054055702
64	0xbcc85c78	-0.024458155
65	0xbd204830	-0.039131343
66	0xbd9344c3	-0.0719085
67	0xbd7be93f	-0.061501738
68	0xbd2bb09a	-0.041916467
69	0x3c41cd62	0.011828752
70	0x3dd96f5c	0.10616943
71	0xbc8ac47a	-0.01693939
72	0xbd6f9300	-0.0584898
73	0xbd641e55	-0.05569299
74	0xbd44db68	-0.048060805
75	0xbd02303b	-0.031784277
76	0x3d245297	0.040117826
77	0xbd283300	-0.041064262
78	0xbda65899	-0.081223674
79	0x3d8c1a84	0.06840995
80	0xbce4303e	-0.027855035
81	0xbd6134ab	-0.05498187
82	0x3d9191ac	0.07107863
83	0xbdb13cad	-0.08654151
84	0x3d8f0854	0.0698401
85	0xbd2cda3d	-0.042200316
86	0x3c6aa463	0.014321419
87	0x3d84cc42	0.064842716
88	0x3c7aa972	0.015299188
89	0x3bfe31ad	0.0077573867
90	0x3dc0e01e	0.09417747
91	0xbc01aaf9	-0.007914298
92	0xbd8b4ef2	-0.06802167
93	0xbd94029b	-0.072270595
94	0xbdc10565	-0.09424857
95	0xbd982272	-0.07428445
96	0x3dcd87ab	0.10035642
97	0xbd899c60	-0.06719279
98	0x3db47763	0.08811834
99	0x3d283f0f	0.041075762
100	0xbba23c70	-0.0049510524
101	0x3d712fb3	0.05888338
102	0x3e022418	0.12709081
103	0xbd845805	-0.06462101
104	0x3de5fbf9	0.112297006
105	0x3d9b161a	0.07572575
106	0xbd1e2561	-0.038609866
107	0x3cbe11f7	0.023201926
108	0x3da1130e	0.078649625
109	0x3dab02d1	0.083501466
110	0xbc226d62	-0.009913774
111	0x3db7c2e9	0.08972723
112	0x3bcba549	0.006214772
113	0xbd90df32	-0.07073821
114	0x3d211d8a	0.03933481
115	0xbdcb907b	-0.09939667
116	0xbc259819	-0.010107064
117	0x3db50de6	0.088405415
118	0x3dbd5592	0.09244837
119	0x3e057c3c	0.13035673
120	0xbca7cdda	-0.0204839
121	0x3e0e411b	0.13892023
122	0x3cca92e2	0.024728242
123	0xbdc8aad7	-0.0979821
124	0xbd72e753	-0.05930264
125	0x3ddfe6bb	0.1093268
126	0xbcb263cf	-0.021776108
127	0xbd8e439c	-0.06946489
128	0xbe0b0f34	-0.13580018
129	0xbd0f9718	-0.035056204
130	0x3d3ab527	0.045582917
131	0x3d71c50d	0.059025813
132	0x3d75f1d6	0.060045086
133	0xbc52595e	-0.01283869
134	0xbbfbbe82	-0.0076826224
135	0x3ddfa708	0.109205306
136	0xbd524b32	-0.051341243
137	0xbd5f9dcb	-0.054593842
138	0xbda6765f	-0.08128046
139	0x3c1425a0	0.009042174
140	0xbd334546	-0.043767236
141	0xbc3cd638	-0.011525683
142	0xbd0b8f0d	-0.03407197
143	0xbddd8062	-0.10815503
144	0x3c17bcae	0.009261293
145	0xbcf57daa	-0.029967148
146	0xbd8783bf	-0.066169254
147	0x3d8f68ba	0.07002397
148	0xbd8e4985	-0.069476165
149	0x3c3b9919	0.011450076
150	0xbdafc5df	-0.08582663
151	0x3de1f857	0.11033695
152	0x3da36a32	0.079792395
153	0xbdb44e89	-0.08804042
154	0x3d8d94fb	0.069131814
155	0x3e0d7edf	0.13817929
156	0x3dd75e11	0.105159886
157	0xbdd288f6	-0.102800295
158	0x3aba4a73	0.0014212861
159	0xbc599fd1	-0.013282732
160	0xbdf98e9e	-0.12185405
161	0x3db662a9	0.08905537
162	0xbca7e159	-0.020493196
163	0x3d6c1860	0.057640433
164	0xbc16677c	-0.009179946
165	0xbd51eaf1	-0.05124945
166	0x3d86114f	0.0654627
167	0xbdc0d02e	-0.09414707
168	0xbda3d5a6	-0.079997346
169	0x3c149043	0.009067598
170	0xbbcad7df	-0.0061902846
171	0x3d16a77a	0.03678081
172	0xbdcbc7a1	-0.099501856
173	0xbd99b502	-0.075052276
174	0xbb1988e2	-0.0023427536
175	0xbd1bc40d	-0.038028765
176	0xbc714374	-0.014725555
177	0x3da8918d	0.082308866
178	0xbda5ac68	-0.080895245
179	0x3d9d918c	0.076937765
180	0xbd3eb33c	-0.04655765
181	0x3dd5f7bd	0.10447643
182	0x3dd05157	0.10171764
183	0xbc88e1cb	-0.016709229
184	0xbd5eaf51	-0.054366414
185	0x3d085e00	0.03329277
186	0x3d898cc0	0.06716299
187	0xbdd5835a	-0.10425444
188	0xbc63a2ee	-0.013893826
189	0x3dbc1d11	0.091852315
190	0xbdb30a10	-0.08742154
191	0x3ce1fac3	0.027585393
192	0x3d172692	0.036902018
193	0xbb903536	-0.0044008745
194	0x3dbcacaf	0.09212624
195	0x3cfc538f	0.030801563
196	0x3d69884f	0.05701476
197	0xbcd6273a	-0.026141752
198	0x3da7c5cc	0.08192024
199	0x3cd37607	0.025813116
200	0x3cf03629	0.0293227
201	0x3de45c03	0.11150362
202	0xbc3b2380	-0.011422038
203	0x3d4a9ebc	0.049467787
204	0xbdc99c0a	-0.09844215
205	0xbd6982ea	-0.057009615
206	0x3de5b414	0.11215988
207	0x3d997c1c	0.07494375
208	0xbded998c	-0.11601552
209	0x3de635fc	0.112407655
210	0xbc9c3ae9	-0.01907106
211	0xbc83a4c0	-0.01606977
212	0xbdea597d	-0.1144285
213	0xbdf40bc6	-0.11916308
214	0xbde8d747	-0.11369186
215	0x3c92246c	0.017839633
216	0x3da015cb	0.07816657
217	0x3dcd4ca9	0.100243874
218	0x3cf24279	0.029572712
219	0x3dd8accc	0.105798334
220	0x3a85f469	0.0010219935
221	0xbd9d35ba	-0.07676263
222	0x3d8382e0	0.06421447
223	0x3d2db38b	0.042407554
224	0xbc2ac7b2	-0.010423588
225	0xbdd02748	-0.10163742
226	0x3d227885	0.039665718
227	0x3cca2c37	0.024679286
228	0xbd96acb4	-0.07357159
229	0xbc789442	-0.015172066
230	0x3d67d907	0.056603458
231	0x3d2c8745	0.04212119
232	0xbbef2b76	-0.007298882
233	0x3ca7d502	0.020487312
234	0x3dbdd9ae	0.09270035
235	0xbb98a359	-0.0046581444
236	0xbddc26b9	-0.10749573
237	0x3d88ef31	0.06686247
238	0xbddd9573	-0.10819521
239	0x3c2b7511	0.0104649225
240	0xbd869c46	-0.065727755
241	0x3dc8100c	0.09768686
242	0x3c600f77	0.013675562
243	0xbd2ddbd9	-0.04244599
244	0xba88a393	-0.0010424725
245	0x3db6723e	0.08908509
246	0xbca084d8	-0.019594595
247	0x3e2913d7	0.16511475
248	0x3e151b82	0.14561275
249	0x3d043f96	0.032287203
250	0x3cb30165	0.02185125
251	0xbc6f174e	-0.014592959
252	0x3c9f2a76	0.019429427
253	0x3caa2db0	0.020773739
254	0x3d3ca63d	0.046056975
255	0xbdedc626	-0.116100594

res1.conv1.bias f4 [8]
0	0x3d18b1c2	0.037278898
1	0x3da3279d	0.0796654
2	0x3dc94b29	0.09828789
3	0x3dfc61f0	0.123233676
4	0xbdc1d3c4	-0.09464219
5	0x3c9e65dc	0.01933568
6	0x3ce3f05f	0.027824579
7	0xbda61f1d	-0.08111403

res1.conv2.weight f4 [8, 8, 3, 3]
0	0x3d9b12d8	0.075719535
1	0xbca10963	-0.019657796
2	0x3de632f5	0.11240188
3	0x3e03480d	0.12820454
4	0xbdc0615f	-0.09393572
5	0x3dbd4161	0.09240986
6	0xbcdb83eb	-0.026796302
7	0xbdc301ca	-0.095218256
8	0xbe089335	-0.13337405
9	0x3d64667a	0.05576179
10	0xbd5a6643	-0.05332018
11	0x3c653a27	0.013990915
12	0xbda4d670	-0.08048713
13	0xbdaf5bac	-0.08562407
14	0xbc7413f6	-0.014897337
15	0x3d61dab4	0.055140212
16	0xbd353b1f	-0.044245835
17	0x3de66d6c	0.11251339
18	0x3d4eeeac	0.050520584
19	0x3d85c828	0.065323174
20	0x3c6ad5b1	0.014333175
21	0xbd3d94d2	-0.046284504
22	0x3d86e3fe	0.06586455
23	0xbde7ff4d	-0.11327992
24	0xbc818e6b	-0.01581498
25	0x3d25e94d	0.040505696
26	0xbd6f4893	-0.05841882
27	0xbdaea543	-0.08527615
28	0xbd0db7e0	-0.034599185
29	0xbdd1fea3	-0.10253646
30	0xbc08ee88	-0.0083576515
31	0xbdb7bc82	-0.08971502
32	0xbdf2626f	-0.11835181
33	0x3de32551	0.11091102
34	0x3e07812d	0.1323287
35	0x3de20d1d	0.110376574
36	0x3cbd71c1	0.023125531
37	0xbdda5388	-0.106604636
38	0x3d4cdb29	0.050013695
39	0x3d9c632f	0.07636105
40	0x3dec2486	0.11530404
41	0xbe047102	-0.12933734
42	0xbd737e75	-0.05944677
43	0x3d207902	0.039177902
44	0x3d09cfb8	0.03364536
45	0xbafad080	-0.0019135624
46	0x3dd657fb	0.10466
47	0x3c2a7598	0.010404013
48	0xbd25a658	-0.04044184
49	0xbd2912be	-0.04127764
50	0xbdefd18b	-0.11709889
51	0x3b147340	0.0022651702
52	0xbbf6b190	-0.0075284913
53	0x3d91ffe5	0.07128886
54	0xbd540a8a	-0.051767863
55	0xbe0932e8	-0.13398325
56	0x3c340470	0.010987386
57	0x3d7ed9c7	0.062219407
58	0xbb3b77ac	-0.0028605266
59	0xbc0961f9	-0.008385175
60	0xbd255ef0	-0.040373743
61	0xbdaeed6f	-0.085413806
62	0xbd8f3dc1	-0.069942005
63	0x3de72eb2	0.11288203
64	0xbd175252	-0.03694374
65	0x3dcdf477	0.100563936
66	0x3d0b884a	0.034065522
67	0xbc9e7bc5	-0.019346127
68	0xbc9dd869	-0.019268231
69	0xbddaba57	-0.10680073
70	0x3d33eb7d	0.04392575
71	0x3de73a52	0.112904206
72	0x3ba954f4	0.005167598
73	0x3d1e93bb	0.038715106
74	0xba949a34	-0.001133746
75	0xbdb4ff68	-0.088377774
76	0x3c7b4759	0.015336835
77	0x3d914b2a	0.070944145
78	0xbc341989	-0.010992416
79	0xbdeaae8d	-0.11459074
80	0x3e375113	0.17902021
81	0x3d353249	0.04423741
82	0x3d2efb44	0.042720094
83	0xbd87bef5	-0.06628219
84	0xbdb9c3ef	-0.090705745
85	0xbd6452ab	-0.0557429
86	0xbd25c92f	-0.040475067
87	0x3bfc0aba	0.0076917084
88	0x3d4cd805	0.0500107
89	0xbda9f0a3	-0.08297851
90	0xbd96ee4e	-0.07369672
91	0xbd96e5c8	-0.07368046
92	0xbca1729f	-0.019707976
93	0xbda3e6c7	-0.08003002
94	0xbd1ed3a3	-0.03877605
95	0x3d724abe	0.05915331
96	0xbdd22eac	-0.10262808
97	0x3ca08872	0.019596312
98	0xbe2ad384	-0.1668225
99	0xbe37f89c	-0.1796593
100	0xbd02bc5e	-0.031917922
101	0x3d4d7caf	0.050167736
102	0x3da2ced5	0.07949606
103	0xbc110878	-0.008852117
104	0x3db19a3a	0.086719945
105	0xbca46d5c	-0.020071678
106	0xbe1e95ec	-0.15486878
107	0x3d6e3296	0.05815371
108	0xbcf5de6c	-0.030013286
109	0xbda0120e	-0.07815944
110	0x3d9066e2	0.07050873
111	0xbd658509	-0.056035075
112	0xbcfa965f	-0.03058928
113	0xbd7860c0	-0.060639143
114	0x3ce412f8	0.027841076
115	0x392a380b	0.00016233341
116	0xbcc6d3ed	-0.024270976
117	0x3d8f8bcd	0.07009087
118	0x3d43b482	0.047779568
119	0xbd5b83fc	-0.053592667
120	0xbd95d8f6	-0.07316773
121	0x3c9dee5c	0.019278698
122	0xbd19c028	-0.03753677
123	0x3c5d2a98	0.013498925
124	0x3dc3d2cb	0.0956169
125	0x3d28dd36	0.04122659
126	0x3c5f0017	0.013610861
127	0xbcde547b	-0.027139893
128	0xbdd139f1	-0.102161296
129	0x3d18063a	0.037115313
130	0xbd9376c3	-0.072003864
131	0xbd71dab6	-0.05904647
132	0x3d5b0d73	0.053479623
133	0x3e01f867	0.12692414
134	0xbd1c5ac8	-0.038172513
135	0xbdb4edd5	-0.08834425
136	0xbd33a8b7	-0.04386207
137	0x3a9c6550	0.0011932049
138	0x3db6873f	0.08912515
139	0x3d5eb8ee	0.05437558
140	0xbdc8a077	-0.09796231
141	0xbc2f9685	-0.010717039
142	0xbd1bc208	-0.03802684
143	0xbd7055c9	-0.05867556
144	0xbda8214c	-0.08209476
145	0x3d7f9374	0.06239648
146	0xbc8dc154	-0.0173041
147	0x3dab031f	0.08350205
148	0x3a6e0a28	0.0009080493
149	0x3d8ad6d1	0.06779254
150	0xbd70f55a	-0.058827735
151	0x3cbff599	0.02343254
152	0xbdd92476	-0.106026575
153	0x3dcdd01f	0.100494616
154	0xbd8b530d	-0.0680295
155	0xbcf89ee7	-0.030349208
156	0xbd7d0560	-0.061772704
157	0xbddd2069	-0.10797197
158	0xbdf31ea8	-0.118710816
159	0xbccc1b00	-0.024915218
160	0xbdcc50e5	-0.09976367
161	0x3d97010b	0.07373246
162	0x3ddea9b7	0.10872214
163	0xbe062ed7	-0.13103805
164	0xbdea6242	-0.114445224
165	0xbbe83afe	-0.0070871105
166	0xbd393c51	-0.045223538
167	0x3d829db3	0.06377735
168	0x3d5905e9	0.052984152
169	0xbc01f5c6	-0.007932132
170	0xbc5c03e3	-0.013428661
171	0xbd9b74fb	-0.07590672
172	0xbdd588a2	-0.10426451
173	0xbc7182c8	-0.014740653
174	0xbbe709b3	-0.007050717
175	0x3cabd876	0.02097724
176	0x3c8fcf36	0.01755486
177	0x3d34a842	0.044105776
178	0x3d4d90b3	0.050186824
179	0x3d294106	0.041321777
180	0x3d7ece8f	0.06220871
181	0x3d25c5e8	0.04047194
182	0xbd8b470c	-0.068006605
183	0xbda66195	-0.08124081
184	0xbd19196a	-0.037377752
185	0xbde5553a	-0.11197896
186	0xbccaa72e	-0.02473792
187	0xbb7fb55e	-0.0039018015
188	0xbdb0a565	-0.086252965
189	0xbddaa45d	-0.10675881
190	0x3aa9e3c0	0.0012961552
191	0x3d1d647a	0.0384259
192	0x3dcb8789	0.09937961
193	0xbd851b12	-0.06499304
194	0x3d65f092	0.05613763
195	0xbdda0eb9	-0.106473394
196	0xbdd6ac02	-0.10482027
197	0x3dbe5b9b	0.09294816
198	0xbcc084eb	-0.02350088
199	0x3dafdae8	0.08586675
200	0x3df2ca5b	0.118550025
201	0x3d6a8d3d	0.0572636
202	0xbdaa5229	-0.08316452
203	0x3de05a42	0.10954715
204	0x3dcdccdb	0.10048839
205	0xbcbdd824	-0.023174353
206	0x3c98a5de	0.01863378
207	0xbdd8422d	-0.10559497
208	0xbde77902	-0.11302377
209	0xbdb27b11	-0.08714879
210	0xbd51d8ce	-0.05123215
211	0xbd91afaf	-0.07113587
212	0x3d292397	0.041293707
213	0x3dc6091f	0.096697085
214	0x3d4f73db	0.050647598
215	0x3d6a3952	0.05718357
216	0x3dc56a2d	0.09639392
217	0xbaca5e3e	-0.0015439463
218	0x3c16ce29	0.009204426
219	0x3d27f147	0.041001584
220	0xbdfe836e	-0.12427412
221	0xbdcc7caf	-0.09984719
222	0x3dfb6864	0.1227577
223	0xbe3d4eb4	-0.18487054
224	0xbda3987b	-0.07988068
225	0x3d0e3a55	0.0347236
226	0xbc14a9ca	-0.009073684
227	0xbd39e75a	-0.04538665
228	0x3de1bc9b	0.11022302
229	0x3d8620b4	0.065492064
230	0x3df02a9a	0.117268756
231	0x3a804047	0.0009784781
232	0xbddc948a	-0.10770519
233	0xbd3643dd	-0.044498313
234	0x3d4a843f	0.049442526
235	0x3d5e28f2	0.054238267
236	0xbbb52b48	-0.005528841
237	0xba71531f	-0.00092058064
238	0xbc088cc1	-0.00833434
239	0x3d57ac9d	0.05265485
240	0x3cf054c2	0.02933729
241	0x3d96958a	0.07352741
242	0x3c84e6e2	0.016223375
243	0x3d11a318	0.03555593
244	0x3d99ba04	0.07506183
245	0x3d917389	0.07102115
246	0xbe1fe581	-0.15614893
247	0xbc40b08a	-0.01176084
248	0xbd02cca9	-0.03193346
249	0x3c5177c7	0.012784905
250	0x3d2ef788	0.042716533
251	0x3c57bcde	0.013167588
252	0x3cef5872	0.029216979
253	0x3cd9f33f	0.026605247
254	0x3dfe375a	0.12412901
255	0xbb5dab3c	-0.0033823987

res1.conv2.bias f4 [8]
0	0x3d424e1b	0.04743777
1	0x3d89b3a5	0.067237176
2	0xbd0592aa	-0.032610573
3	0xbd3a1ac1	-0.04543567
4	0xbd303513	-0.043019366
5	0xbd421218	-0.047380537
6	0x3cba2d24	0.022726603
7	0xbc1fc44b	-0.00975139

res2.conv1.weight f4 [8, 8, 3, 3]
0	0xbdb280ca	-0.08715971
1	0xbdbb8dcc	-0.09157905
2	0x3c8f28dc	0.017475538
3	0xbd7703ad	-0.06030624
4	0x3d890a3e	0.06691407
5	0x3d8cd02c	0.06875643
6	0x3da0931f	0.07840561
7	0xbc851627	-0.016245915
8	0xbddf18e9	-0.10893423
9	0x3da21f49	0.079161234
10	0x3d030fa9	0.031997357
11	0xbde32a7b	-0.11092087
12	0xbdb03fc7	-0.086059146
13	0xbc34d5d4	-0.011037309
14	0xbd8e14bf	-0.06937551
15	0xbdc90fd4	-0.09817472
16	0xbda82460	-0.08210063
17	0x3b8903cc	0.004181361
18	0xbca165fe	-0.019701954
19	0x3c9f88ce	0.019474413
20	0x3d8da165	0.06915549
21	0x3dab43b6	0.08362524
22	0xbba622c4	-0.0050700624
23	0xbc166440	-0.009179175
24	0x3d5b0084	0.05346729
25	0x3d27351d	0.040822137
26	0x3bbd9f0d	0.0057867826
27	0xbdc84e01	-0.09780503
28	0xbd603996	-0.05474242
29	0x3dbe06e8	0.09278661
30	0xbcebe27c	-0.02879452
31	0x3d8cf68e	0.06882964
32	0x3c292681	0.010324121
33	0x3dabca47	0.08388191
34	0x3d16bb2e	0.036799602
35	0x3c7527f3	0.014963138
36	0x3d816a90	0.06319153
37	0xbdd351b9	-0.10318322
38	0xbcb3964d	-0.021922255
39	0x3d417f08	0.047240287
40	0xbd879724	-0.06620625
41	0xbdb489cb	-0.088153444
42	0xbd3ef54b	-0.04662065
43	0x3da0ba67	0.078480534
44	0xbde2bd0d	-0.11071215
45	0x3cc19ba3	0.023633784
46	0x3cb72d34	0.022360422
47	0xbdc8faec	-0.098134845
48	0x3ce98139	0.028504001
49	0xbd1bfe95	-0.038084585
50	0xbdfc721b	-0.123264514
51	0xbd751549	-0.059834752
52	0xbd9eb2d9	-0.07748956
53	0x3c8c385e	0.017116722
54	0xbbf05497	-0.0073343026
55	0x3da4358d	0.080180265
56	0x3d9555a6	0.07291727
57	0x3dc2375f	0.094832174
58	0xbdd6a78b	-0.10481175
59	0xbdae3897	-0.085068874
60	0xbcec404a	-0.02883925
61	0xbdf49c95	-0.11943928
62	0x3dca1bc5	0.09868578
63	0xbde49021	-0.11160303
64	0x3ded4d41	0.11587001
65	0xbd919c7e	-0.07109927
66	0x3d74293a	0.05960963
67	0x3d3ec55a	0.046574928
68	0xbd182746	-0.03714683
69	0xbdd96c11	-0.10616315
70	0x3d5e4e0a	0.054273643
71	0xbdce860b	-0.100841604
72	0x3c88737b	0.016656628
73	0x3d51a4b2	0.051182456
74	0xbd86ed9a	-0.06588288
75	0x3c0680f0	0.008209452
76	0x3dcb0f48	0.09915024
77	0x3d494a6f	0.04914325
78	0xbd916b93	-0.07100596
79	0x3d9a2658	0.07526845
80	0x3d5d72b8	0.054064482
81	0x3c4a7cfd	0.012358901
82	0x3dcb8c42	0.099388614
83	0x3e092129	0.13391556
84	0x3dac6cc9	0.084191866
85	0x3c093957	0.008375487
86	0x3e0ac527	0.1355177
87	0xbd00c068	-0.031433493
88	0xbdd486d0	-0.10377276
89	0xbc3b5231	-0.01143317
90	0xbd8c67e2	-0.068557516
91	0xbd13497c	-0.035958752
92	0xbc898ea4	-0.01679165
93	0xbd8475bf	-0.06467771
94	0x3e0174bd	0.12642188
95	0x3c400ffe	0.011722563
96	0x3dadfe95	0.08495823
97	0xbde84697	-0.11341589
98	0xbd489bc4	-0.048976675
99	0x3dbbf0f7	0.0917682
100	0xbce35cd4	-0.027754225
101	0x3d563cbd	0.05230402
102	0x3d784deb	0.060621183
103	0xbd74ccad	-0.059765507
104	0x3dde2cc3	0.10848381
105	0xbdb6a029	-0.08917267
106	0xbd37918b	-0.044816535
107	0x3d88b6aa	0.066754654
108	0xbbd9540c	-0.0066323336
109	0xbd9791e8	-0.07400876
110	0x3d84ddd5	0.064876236
111	0x3dd0e9de	0.102008566
112	0x3d921ff3	0.07135
113	0xbd9763f6	-0.07392113
114	0x3d50008d	0.050781775
115	0xbdd0a5ea	-0.101878956
116	0xbd437ec9	-0.047728334
117	0xbd829507	-0.06376081
118	0x3d594ccf	0.053051766
119	0xbd53b925	-0.05169024
120	0x3d7ab732	0.061209865
121	0x3be93a5c	0.0071175527
122	0xbbf02ed0	-0.0073297992
123	0xbc35346c	-0.011059862
124	0x3dec9c46	0.11553244
125	0x3b4f071a	0.0031589926
126	0xbdba0256	-0.09082477
127	0x3d786199	0.06063995
128	0x3db497e7	0.088180356
129	0xbdbee237	-0.09320491
130	0x3d99d6fa	0.07511707
131	0xbdbf37ce	-0.09336816
132	0x3dc3e849	0.09565789
133	0x3d94062e	0.07227741
134	0x3df61a1e	0.120167
135	0xbe0bbb37	-0.13645636
136	0xbd3ee06d	-0.046600748
137	0xbcf3b81d	-0.029750878
138	0xbd0db975	-0.034600694
139	0xbe07deaf	-0.13268541
140	0xbdaa153c	-0.083048314
141	0xbd4c93c8	-0.049945623
142	0xbd93690f	-0.07197773
143	0x3de8f044	0.11373952
144	0x3e0a0fb0	0.13482547
145	0x3caf99c5	0.021435628
146	0xbdbe7581	-0.09299756
147	0x3d150624	0.03638281
148	0x3d12f131	0.03587455
149	0x3dbe8840	0.093033314
150	0x3dfa6457	0.122261696
151	0x3da9eb08	0.08296782
152	0xbdba0c36	-0.0908436
153	0xbcf90409	-0.030397432
154	0x3d83738b	0.064185224
155	0xbd65eec6	-0.056135915
156	0x3dde772c	0.10862574
157	0x3d8d0cb3	0.06887188
158	0x3d72ec2e	0.05930727
159	0xbd82a77b	-0.063796006
160	0x3dbfbdb1	0.09362353
161	0xbda3ea89	-0.080037184
162	0x3d923254	0.071385056
163	0x3da764ad	0.08173499
164	0xbd8a20e1	-0.067445524
165	0xbd85e9c1	-0.06538726
166	0x3d9918f2	0.07475461
167	0xbd71e93c	-0.05906032
168	0x3d927c9b	0.07152673
169	0xbd272cf4	-0.040814355
170	0x3d4c063f	0.049810644
171	0xbdea851d	-0.114511706
172	0x3d47183f	0.048607107
173	0x3d1adf5e	0.037810676
174	0xbd85f14e	-0.06540166
175	0x3d85bf30	0.06530607
176	0xbcf601b6	-0.030030113
177	0x3e3406e0	0.17580748
178	0x3e261719	0.16219749
179	0x3e2c7244	0.16840464
180	0x3d3b63c0	0.045749426
181	0xbc96c905	-0.0184064
182	0x3db4ddbb	0.08831354
183	0x3c2c7aa8	0.01052729
184	0xba02cfd9	-0.0004990078
185	0xbbfc57fa	-0.0077009173
186	0x3ddc8e81	0.10769368
187	0x3d187cfa	0.037228562
188	0x3dd85ec3	0.10564949
189	0xbcefdce6	-0.029280137
190	0xbcb94da0	-0.022620022
191	0xbd7b67bb	-0.061378222
192	0x3d0876da	0.03331647
193	0x3de458bc	0.11149737
194	0x3dcebd56	0.10094707
195	0x3cf28dbc	0.0296086
196	0xbc525d9e	-0.012839703
197	0x3c6f4cd0	0.014605716
198	0x3d05f481	0.03270388
199	0x3db7619e	0.08954166
200	0x3dd92e80	0.10604572
201	0xbdbf630b	-0.09345063
202	0xbd9952ac	-0.074864715
203	0xbe398c04	-0.18119818
204	0xbd8e056b	-0.06934627
205	0xbd1ddc10	-0.038539946
206	0x3d094fc2	0.03352333
207	0x3d913d0c	0.07091722
208	0xbc39a70c	-0.011331331
209	0xbc3cbb7a	-0.011519307
210	0x3e01a1f8	0.12659442
211	0xbd91f52b	-0.0712684
212	0x3dee77af	0.116439216
213	0x3bac15b6	0.0052516116
214	0x3d9cc63d	0.076549985
215	0xbd67d23c	-0.05659698
216	0x3d8be385	0.06830505
217	0x3d0c55ff	0.0342617
218	0x3d2d3b98	0.04229316
219	0x3d0b959b	0.03407822
220	0xbcdbea08	-0.026844993
221	0xbdd32869	-0.10310442
222	0xbd03d90a	-0.032189406
223	0xbdbeb349	-0.0931154
224	0xbd0a8451	-0.033817593
225	0x3da24fa4	0.079253465
226	0x3d96bfe9	0.07360823
227	0x3cc4ccd1	0.024023445
228	0x3dc3269b	0.09528848
229	0xbd195185	-0.03743126
230	0xbd216426	-0.03940215
231	0xbd949a9e	-0.072560534
232	0x3db73bb3	0.089469336
233	0xbd47f6e4	-0.048819438
234	0xbc190f20	-0.009341985
235	0xbd07143b	-0.032978278
236	0xbd1c5922	-0.03817094
237	0x3d006dbe	0.03135466
238	0xbcab62ef	-0.020921199
239	0x3d21510a	0.039383925
240	0x3d1acbf0	0.037792146
241	0xbdcb0a49	-0.09914071
242	0xbc23c095	-0.009994646
243	0x3e4d8b8c	0.20072764
244	0xbd87c43b	-0.06629225
245	0xbdab9609	-0.08378226
246	0x3daa7323	0.08322742
247	0xbe9395ff	-0.28825375
248	0xbcec2940	-0.028828263
249	0x3e1a436e	0.15064785
250	0xbe2e105b	-0.16998427
251	0x3e5709b1	0.2099979
252	0xbd8f12f9	-0.069860406
253	0xbdb249c5	-0.08705477
254	0xbca22758	-0.019794151
255	0xba9a1741	-0.0011756198

res2.conv1.bias f4 [8]
0	0xbdfd9c6f	-0.12383353
1	0x3d9a6391	0.07538522
2	0x3c53589b	0.012899543
3	0x3d5d9187	0.054093864
4	0x3dbaf971	0.091296084
5	0xba755a6f	-0.0009359484
6	0x3d965802	0.07341005
7	0x3daf6647	0.0856443

res2.conv2.weight f4 [8, 8, 3, 3]
0	0xbd09ab07	-0.03361037
1	0xbc7e4500	-0.015519381
2	0x3dc34867	0.09535294
3	0xbdecfda5	-0.11571816
4	0xbde84132	-0.1134056
5	0x3db7b14e	0.08969365
6	0x3d35bda1	0.044370297
7	0x3d89991c	0.067186564
8	0x3dbdeb3e	0.092733845
9	0xbcffa957	-0.031208677
10	0x3db54607	0.08851247
11	0xbc83c9f5	-0.016087512
12	0xbd04b2b7	-0.032397
13	0xbdfddffd	-0.12396238
14	0x3de548ba	0.11195512
15	0x3c0149b3	0.007891106
16	0xbdc8d31d	-0.09805892
17	0x3d57fd36	0.052731715
18	0xbcbfb924	-0.023403712
19	0xbdaddbd6	-0.08489196
20	0xbd883d0e	-0.0665227
21	0xbc6313c2	-0.013859691
22	0x3d3c41ce	0.045961194
23	0xbdde93eb	-0.10868057
24	0x3db16af7	0.0866298
25	0xbcce64c7	-0.025194539
26	0xbdd96410	-0.106147885
27	0x3c84a5fe	0.016192432
28	0x3cc7d3a7	0.024392916
29	0xbd6ac5a4	-0.05731739
30	0xbdee7357	-0.11643093
31	0x3cdd46db	0.027011326
32	0x3d2787d2	0.040901013
33	0x3dc517f4	0.09623709
34	0x3e4a9e89	0.19787039
35	0x3b7e0d82	0.0038765376
36	0xbc8fcb2c	-0.017552935
37	0x3d418883	0.04724933
38	0xbc9b1858	-0.018932506
39	0x3daa966c	0.08329472
40	0xbde9f75e	-0.11424135
41	0xbe02512b	-0.12726276
42	0x3d987ec9	0.07446057
43	0xbcea1f29	-0.028579311
44	0xbda968d1	-0.08271945
45	0x3da45bc7	0.08025318
46	0x3bc8047f	0.0061040516
47	0x3e105176	0.14093575
48	0x3e26e53a	0.1629838
49	0x3d904f89	0.0704642
50	0x3e816f97	0.2528045
51	0x3d556db0	0.05210656
52	0xba8e2806	-0.0010845668
53	0xbc9571e8	-0.018242791
54	0x3e0833ba	0.13300982
55	0x3c3ebb36	0.011641314
56	0x3c19f0f7	0.009395829
57	0x3e3e7faf	0.18603395
58	0x3e56a1a8	0.20960104
59	0xbc8f043d	-0.017458076
60	0x3df87643	0.12131932
61	0xbe2818f5	-0.1641577
62	0xbd794c00	-0.060863495
63	0x3d735549	0.059407506
64	0xbe036ae5	-0.12833746
65	0x3d84b198	0.06479186
66	0xbdebd871	-0.11515892
67	0x3d3e6ea6	0.04649224
68	0xbd86db36	-0.0658478
69	0xbd8c74ac	-0.06858191
70	0x3c9b1464	0.018930621
71	0xbd474ddf	-0.048658248
72	0xbd2ec1ea	-0.0426654
73	0xbdd8d693	-0.10587802
74	0x3ddd7b3f	0.10814523
75	0xbd04efa6	-0.03245511
76	0xbdbc091a	-0.091814235
77	0x3dd7c3ae	0.1053537
78	0xbd9d654b	-0.07685336
79	0xbda56521	-0.080759294
80	0x3d750487	0.05981877
81	0xbdd1f7fd	-0.10252378
82	0x3ae9c3af	0.0017834808
83	0xbe0fd947	-0.14047728
84	0xbd8d21f6	-0.06891243
85	0xbb328c19	-0.002724415
86	0xbc05681c	-0.008142497
87	0xbd76d8d4	-0.060265377
88	0xbdac1e9c	-0.08404276
89	0x3d597626	0.05309119
90	0x3d8c758b	0.06858357
91	0x3d70f486	0.058826946
92	0x3bceda17	0.0063126194
93	0x3c913692	0.017726216
94	0x3caf0759	0.021365808
95	0x3d881b8c	0.06645879
96	0x3db3bf70	0.08776748
97	0x3df0ae69	0.11752016
98	0xbdbd1a4c	-0.09233531
99	0xbc2e22dd	-0.010628429
100	0x3d0f9bcd	0.035060693
101	0x3bd0ef94	0.006376216
102	0x3dc6cada	0.097066596
103	0x3c015df9	0.00789594
104	0x3d5ad761	0.053428058
105	0x39d1a38e	0.00039985444
106	0xbc11a3a5	-0.008889114
107	0x3db5e907	0.08882337
108	0xbd0d2234	-0.034456447
109	0xbcfca5af	-0.030840723
110	0xbd9d8948	-0.076922
111	0xbd5c2a5d	-0.05375134
112	0x3dd0c9df	0.10194754
113	0xbcb34be6	-0.021886777
114	0x3d3a2a5b	0.04545055
115	0x3dc41cf2	0.095758334
116	0x3de9d8c8	0.11418301
117	0xbdafcf64	-0.085844785
118	0x3b9c9784	0.0047788043
119	0x3cfe138c	0.03101518
120	0x3d4fa370	0.050692976
121	0x3dae205d	0.085022666
122	0x3d1ffd67	0.039060023
123	0x3d47ca3f	0.04877686
124	0xbd0e42ab	-0.03473155
125	0xbd80da58	-0.06291646
126	0xbd8fd670	-0.070233226
127	0x3c894c49	0.016760008
128	0x3e29759c	0.1654877
129	0x3e07533a	0.13215342
130	0x3e5a2984	0.213049
131	0x3d7eadfa	0.062177636
132	0xbd88a8d5	-0.06672827
133	0x3e616374	0.22010595
134	0x3c904899	0.017612742
135	0xbd5748dd	-0.052559722
136	0x3d1269f3	0.035745572
137	0x3d836ec0	0.06417608
138	0x3dbad29d	0.091222025
139	0xbca09013	-0.01959995
140	0xbdcb0653	-0.099133156
141	0x3e051ced	0.12999316
142	0x3cc64e44	0.024207242
143	0xbc597075	-0.013271441
144	0x3cbf8681	0.023379566
145	0x3710f823	8.640843e-06
146	0x3d0a1b90	0.033717692
147	0x3e042bc6	0.12907323
148	0xbdba0358	-0.09082669
149	0x3c100a7b	0.008791561
150	0x3d930b28	0.07179862
151	0x3df48e86	0.11941247
152	0xbdbe0823	-0.09278896
153	0xbd2eabea	-0.04264442
154	0xbdd7df1a	-0.105406
155	0xbdcec5ef	-0.100963466
156	0x3d85855f	0.06519579
157	0xbd37b24f	-0.044847783
158	0x3b8cdab6	0.0042985333
159	0xbd9c61f3	-0.0763587
160	0xbdde3741	-0.108503826
161	0x3cdc7ec6	0.026915919
162	0x3d26a927	0.04068866
163	0xbdcf292d	-0.101152755
164	0xbd8a14f0	-0.06742275
165	0x3d147fbf	0.03625464
166	0x3d3ea18b	0.046540778
167	0x3cd065db	0.025439193
168	0x3cc133bc	0.02358424
169	0x3de20891	0.1103679
170	0xbc6972cf	-0.014248564
171	0xbd49c8b0	-0.049263656
172	0x3e1d53b2	0.15363958
173	0x3c95ced1	0.018287094
174	0x3d0e3b96	0.034724794
175	0xbd8b8e83	-0.06814291
176	0x3d1f6465	0.038914103
177	0xbdc14451	-0.094368584
178	0x3e128b2c	0.14310902
179	0x3c1cf623	0.009580168
180	0xbd8c1808	-0.06840521
181	0xbda439a1	-0.08018804
182	0x3dd7798c	0.1052123
183	0xbc2c1fdf	-0.010505646
184	0xbdb6edd1	-0.08932079
185	0x3da0f01a	0.07858296
186	0xbce0b29b	-0.027428916
187	0x3df8989f	0.12138485
188	0x3b2c78ee	0.0026317197
189	0xbd584636	-0.052801333
190	0xbcd9ef2a	-0.0266033
191	0xbd9e8fdd	-0.077422835
192	0xbc543d26	-0.012954032
193	0x3e15b086	0.1461812
194	0x3ddf192c	0.10893473
195	0xbd3f84ad	-0.04675739
196	0x3d029f2a	0.031890072
197	0x3cd93722	0.026515547
198	0xbc87a761	-0.016559305
199	0x3d920904	0.07130626
200	0x3d8e5943	0.06950619
201	0xbd060b4f	-0.03272563
202	0xbe284344	-0.1643191
203	0xbc5299cb	-0.01285405
204	0x3dae17cc	0.08500633
205	0x3d41080f	0.047126826
206	0x3bede350	0.007259764
207	0x3d130e77	0.035902467
208	0x3c9afc98	0.018919274
209	0xbd74fc23	-0.05981077
210	0x3cc1754b	0.0236155
211	0x3d0f525f	0.034990665
212	0xbc8ee2c5	-0.017442117
213	0x3dc5b005	0.09652714
214	0xbdc7e065	-0.09759597
215	0xbddaadfe	-0.106777176
216	0xbdb79ed3	-0.0896584
217	0xbd34bb77	-0.044124093
218	0xbd64e527	-0.0558826
219	0xbdeb5e40	-0.11492586
220	0x3ccd3328	0.025048807
221	0xbda6bb39	-0.08141179
222	0x3db16583	0.0866194
223	0x3dd3da4c	0.10344371
224	0xbd503cd5	-0.050839264
225	0xbd7dfd57	-0.06200918
226	0x3d8d0ce1	0.06887222
227	0xbd04df7c	-0.032439694
228	0xbd451ba2	-0.048122056
229	0x3d2ee152	0.04269535
230	0xbcde070a	-0.027102966
231	0x3d82d05b	0.06387397
232	0xbdd4e97c	-0.10396096
233	0x3c90fbeb	0.017698249
234	0xbe3afac5	-0.18259723
235	0x3c586f7f	0.0132101765
236	0xbc9b80df	-0.018982349
237	0xbca1c408	-0.019746795
238	0xbcf8f074	-0.030388094
239	0xbe0ac901	-0.1355324
240	0x3d34764a	0.04405812
241	0xbe3f935e	-0.1870856
242	0x3d27324e	0.04081946
243	0xbe68a7de	-0.22720286
244	0x3dd3f740	0.103498936
245	0xbc4a2c46	-0.012339657
246	0xbea55901	-0.32294467
247	0xbcd2cf13	-0.025733506
248	0xbe8b939c	-0.27261055
249	0x3bfd1931	0.0077239503
250	0x3e52a697	0.20571361
251	0x3d5799f4	0.052637056
252	0xbd244525	-0.040105004
253	0x3d8da78d	0.069167234
254	0x3cd6e9d4	0.026234545
255	0x3dc73c1d	0.097282626

res2.conv2.bias f4 [8]
0	0xbbb32050	-0.0054664984
1	0x3d3375e5	0.043813605
2	0x3dc37027	0.09542876
3	0x3ca0bd64	0.019621558
4	0x3ce02d70	0.027365416
5	0xbcf581ec	-0.029969178
6	0x3d629cd3	0.05532534
7	0x3c88486d	0.016636098

res3.conv1.weight f4 [8, 8, 3, 3]
0	0x3d1ff76e	0.039054327
1	0x3dc1e873	0.09468164
2	0x3b173765	0.002307379
3	0x3c9b0e88	0.018927827
4	0xbd33d524	-0.04390444
5	0xbd537ff7	-0.05163571
6	0x3e3183d3	0.17335443
7	0x3e675060	0.22589254
8	0x3d40859f	0.04700243
9	0x3db736bb	0.08945986
10	0x3dfc9f6a	0.12335093
11	0x3d50fe9e	0.051024072
12	0xbd5fbaa4	-0.054621354
13	0xbd27c240	-0.040956736
14	0x3e0f117c	0.13971514
15	0xbc53d4b0	-0.012929127
16	0xbd80624d	-0.062687494
17	0x3d5914ac	0.05299823
18	0xbcd88f74	-0.026435591
19	0xbd83b96f	-0.06431853
20	0xbd44ccee	-0.048047
21	0xbd36e7fa	-0.044654824
22	0xbda599a7	-0.080859475
23	0xbdb2f144	-0.08737424
24	0xbd15d775	-0.03658243
25	0xbd994cba	-0.074853376
26	0xbd1b9ba8	-0.037990242
27	0xbc0a2ffb	-0.008434291
28	0xbbb3043c	-0.0054631513
29	0x3b28552a	0.0025685527
30	0xbdd22db2	-0.10262622
31	0xbd9ed950	-0.07756293
32	0xbd6d6207	-0.057954814
33	0xbd34e97d	-0.044167984
34	0x3d83c4a3	0.0643399
35	0xbd9b8bc0	-0.075950146
36	0x3d0b37c3	0.033988725
37	0x3dd1d034	0.1024479
38	0xbda78c3f	-0.08181047
39	0x3d9f1517	0.077676944
40	0x3da466b4	0.080274016
41	0x3cefb7eb	0.029262504
42	0xbd97f18a	-0.07419117
43	0x3de9adf8	0.11410135
44	0xbd0745b5	-0.033025462
45	0x3ddc31ae	0.10751663
46	0x3da8bbe0	0.08238959
47	0xbd6a57c4	-0.057212606
48	0x3de085b6	0.10963003
49	0x3dda65df	0.106639616
50	0x3e071ce7	0.13194619
51	0xbd8f634e	-0.07001363
52	0xbc2950ad	-0.010334176
53	0xbd33531c	-0.04378043
54	0x3d2a5da0	0.041593194
55	0xbe320a3c	-0.17386717
56	0x3e38c8a1	0.18045284
57	0x3c13ab79	0.00901305
58	0xbde0f037	-0.10983317
59	0x3d2cba81	0.04217005
60	0xbdde7350	-0.10861838
61	0xbe1a0562	-0.15041116
62	0xbdefb49e	-0.11704372
63	0xbd65f109	-0.056138072
64	0x3d1410c9	0.03614882
65	0xbb3f4b11	-0.002918903
66	0xbbabfec8	-0.005248878
67	0x3d6a5499	0.057209585
68	0xbd7eb20f	-0.06218153
69	0x3d51faa8	0.051264435
70	0x3dd6f9e5	0.10496882
71	0xbd7e812a	-0.0621349
72	0xbde087c4	-0.10963395
73	0x3d9cc7a2	0.076552644
74	0xbcc9032c	-0.024537645
75	0xbd9c4ef4	-0.076322466
76	0x3d972242	0.07379581
77	0xbdf82edb	-0.12118312
78	0xbd1449b5	-0.036203105
79	0x3d96bc57	0.07360142
80	0x3db6b185	0.08920578
81	0x3d9eb992	0.077502385
82	0xbdf1f527	-0.11814337
83	0xbdde4435	-0.10852853
84	0xbd908709	-0.07057006
85	0x3cce2184	0.025162466
86	0x3c453df5	0.0120386975
87	0xbdd88ff0	-0.10574329
88	0xbdf196b5	-0.11796323
89	0xbd01f76a	-0.031730093
90	0xbd9782cf	-0.07397997
91	0xbcaa1a55	-0.02076451
92	0xbd627c41	-0.05529428
93	0xbc1dbca6	-0.009627497
94	0x3d1dd3cb	0.03853206
95	0x3cc2f22d	0.023797119
96	0x3d61a65a	0.055090286
97	0x3c82c235	0.015961746
98	0xbd8d7964	-0.06907919
99	0x3d9356d0	0.071942925
100	0xbcbf18ed	-0.023327315
101	0xbdaca288	-0.08429438
102	0x3dc4467d	0.09583757
103	0x3dcaf24c	0.09909496
104	0x3ba16b52	0.0049261237
105	0x3c273823	0.010206255
106	0xbd554956	-0.05207189
107	0xbcc7e0a1	-0.024399104
108	0x3c1a0c1c	0.009402301
109	0xbd8c17b9	-0.06840462
110	0x3d0acb6e	0.033885412
111	0x3db6be60	0.0892303
112	0xbdb26e12	-0.087124005
113	0x3d7d7f50	0.061888993
114	0xbda3fc8a	-0.080071524
115	0xbdd9b794	-0.10630718
116	0x3d686a43	0.056741964
117	0x3c8e635a	0.017381359
118	0xbe0ed4fb	-0.13948433
119	0xbe09cf02	-0.13457873
120	0xbc924b1b	-0.017858079
121	0xbcf65be2	-0.03007311
122	0x3d74aa10	0.059732497
123	0xbd0ac83f	-0.033882376
124	0x3d962cc7	0.07332759
125	0x3d8a4285	0.06750969
126	0x3d30c2ce	0.04315453
127	0x3d560ba8	0.05225721
128	0x3cf00f95	0.029304305
129	0x3bbe04e3	0.0057989224
130	0x3cbc329e	0.022973355
131	0xbce78d32	-0.02826557
132	0x3ca8f1a5	0.020623038
133	0xbdcf2d5a	-0.10116072
134	0xbbc5660d	-0.0060241283
135	0x3d4e0d7c	0.05030583
136	0x3ddc59c1	0.10759307
137	0x3ba50532	0.0050360197
138	0xbc9a69df	-0.018849311
139	0xbc4577fd	-0.012052533
140	0x3dd57eff	0.10424613
141	0xbd741240	-0.059587717
142	0x3dad37ae	0.08457886
143	0xbdc9f21f	-0.09860634
144	0x3dd3e823	0.10347011
145	0xbec3c062	-0.38232714
146	0xbde69357	-0.112585716
147	0x3c3e2d73	0.011607516
148	0xbcac5abc	-0.02103936
149	0x3e32e31d	0.1746945
150	0xbc8145cc	-0.015780352
151	0x3d514b91	0.051097456
152	0x3d5e18bb	0.054222804
153	0xbdaca94f	-0.084307306
154	0xbd1d6e2c	-0.038435146
155	0xbe0aadc2	-0.13542846
156	0xbd59adfb	-0.053144436
157	0x3d9f8e90	0.077908635
158	0xbda724bd	-0.08161304
159	0xbdb24e20	-0.087063074
160	0xbc8365fb	-0.016039839
161	0xbd1fe3a6	-0.03903546
162	0x3d56f1d4	0.05247672
163	0xbd5bdb13	-0.053675722
164	0xbdabc8c0	-0.083878994
165	0xbca16e71	-0.019705983
166	0x3d1ec9db	0.038766723
167	0xbc99f130	-0.018791765
168	0x3dcabfaa	0.09899838
169	0x3c8edbc5	0.017438779
170	0x3dd12407	0.1021195
171	0xbdb8f7e5	-0.09031657
172	0xbc2e10cf	-0.010624125
173	0xbe22a073	-0.15881519
174	0x3d4066e5	0.046973128
175	0x3dcd5037	0.100250654
176	0x3d643851	0.05571777
177	0x3cdf1791	0.027232917
178	0x3d96463e	0.073376164
179	0x3d0c77a6	0.034293793
180	0x3cac3f49	0.02102627
181	0xbdedaebe	-0.11605595
182	0xbdf7420a	-0.12073143
183	0xbb137bae	-0.0022504139
184	0x3e2832a8	0.16425574
185	0xbd13ea8e	-0.03611236
186	0xbbb9287e	-0.005650579
187	0x3d28dc43	0.041225683
188	0xbd29e0a7	-0.04147401
189	0xbd6a91d9	-0.057267997
190	0xbd0351e8	-0.032060534
191	0x3cef6d3a	0.029226888
192	0x3b5582b6	0.003257913
193	0x3d8bfd11	0.06835378
194	0x3b401680	0.0029310286
195	0x3e2c6493	0.16835241
196	0x3c7b80a5	0.015350495
197	0x3d4ba844	0.049721017
198	0x3db31150	0.087435365
199	0xbe8172fa	-0.25283033
200	0x3e999efd	0.3000411
201	0xbe6bb110	-0.23016763
202	0xbe796f92	-0.24358967
203	0x3dc1c3db	0.094611846
204	0x3e30f146	0.17279539
205	0xbdb011d5	-0.08597151
206	0xbf058211	-0.5215159
207	0xbdf4b529	-0.11948616
208	0x3dbbf2fa	0.091772035
209	0xbe0b20b1	-0.1358669
210	0xbd51c606	-0.05121424
211	0x3da896f7	0.08231919
212	0x3d8896b4	0.06669369
213	0x3c764b8a	0.015032658
214	0xbde02235	-0.109440245
215	0x3ca3d262	0.01999778
216	0xbdfd21f1	-0.123599894
217	0x3c23e107	0.010002381
218	0x3d05baaa	0.03264872
219	0xbddbeec8	-0.10738903
220	0x3dc32d49	0.09530122
221	0xbe9420b2	-0.28931195
222	0x3ea808ee	0.32819313
223	0x3e4e7cf9	0.20164861
224	0xbdd5ed0a	-0.10445602
225	0x3d3758a4	0.04476227
226	0x3d8c2e88	0.06844813
227	0xbca7453e	-0.02041876
228	0x3c165868	0.009176351
229	0x3de262c1	0.11053992
230	0x3d95175f	0.07279848
231	0xbbef22e5	-0.007297861
232	0xbde29512	-0.11063589
233	0xbda8b814	-0.08238235
234	0x3dfa302d	0.1221622
235	0x3dbb1225	0.0913432
236	0xbcbcde9c	-0.023055367
237	0xbde5505b	-0.11196967
238	0xbb0ab3e4	-0.0021164352
239	0x3b19f892	0.0023494107
240	0xbe054e21	-0.13018085
241	0xbdd8c1a5	-0.1058381
242	0x3cfe498b	0.031040927
243	0x3e2d147a	0.16902342
244	0x3e3ec9f1	0.18631722
245	0x3dae5b91	0.08513559
246	0xbdf9d410	-0.12198651
247	0xbe3f240d	-0.18666096
248	0xbe6d47e9	-0.23171963
249	0x3cb7da20	0.022442877
250	0x3eb1efe8	0.34753346
251	0xbe103a59	-0.14084758
252	0xbdc28bad	-0.09499297
253	0xbe0afa7e	-0.13572118
254	0xbe075617	-0.13216434
255	0xbe6f2262	-0.2335296

res3.conv1.bias f4 [8]
0	0x3dd40b6d	0.10353742
1	0xbcfc41ec	-0.030793153
2	0x3d90b89b	0.07066461
3	0x3d3d4d5a	0.046216346
4	0xbc2ea2d2	-0.010658937
5	0x3d474047	0.048645284
6	0xbd9206c8	-0.071302
7	0x3dc584f3	0.09644499

res3.conv2.weight f4 [8, 8, 3, 3]
0	0xbd1902ec	-0.037356302
1	0xbcff4770	-0.031161994
2	0x3d529204	0.051408783
3	0xbc9f7791	-0.019466193
4	0xbcb8eefc	-0.022574894
5	0xbd6f9fec	-0.058502123
6	0xbd4d951b	-0.050191026
7	0xbc8ad1d4	-0.016945757
8	0xbdada3fd	-0.08478544
9	0xbd325cde	-0.043545596
10	0xbda9e285	-0.08295158
11	0x3c7d55b9	0.015462332
12	0x3da01a27	0.07817488
13	0x3c13319e	0.008983998
14	0x3d9d2bd4	0.07674375
15	0x3dade411	0.08490766
16	0xbd02a4fe	-0.03189563
17	0xbc91f7b6	-0.017818313
18	0x3d9f1cd4	0.077691704
19	0xbd8b9771	-0.068159945
20	0xbdd72970	-0.105059505
21	0x3d65c6fb	0.056097966
22	0xbde497fe	-0.11161803
23	0xbbc51380	-0.0060142875
24	0xbd5f58fc	-0.05452822
25	0xbdf54795	-0.11976544
26	0x3c11becf	0.00889559
27	0x3dad43e3	0.08460214
28	0x3c854be0	0.016271532
29	0x3d812ac4	0.06306985
30	0x3af5d626	0.0018755838
31	0x3c003968	0.007826187
32	0x3d4806c5	0.04883458
33	0x3dbd8c8c	0.09255323
34	0xbcf5dd82	-0.03001285
35	0xbe1648f4	-0.14676267
36	0x3e180285	0.14844711
37	0xbe20f674	-0.15719014
38	0x3e6aeb82	0.22941402
39	0xbe470283	-0.19434552
40	0xbc266c72	-0.010157691
41	0xbe4bdecb	-0.19909208
42	0x3e4fe7aa	0.20303217
43	0x3e0b8249	0.13623919
44	0x3ea6633a	0.3249758
45	0x3c8fc45e	0.01754969
46	0xbde2e361	-0.11078525
47	0x3db6c493	0.08924212
48	0x3d3d2578	0.04617831
49	0x3d2fa394	0.04288061
50	0x3d4d21f5	0.050081212
51	0xbc80a2ad	-0.01570257
52	0x3a91d099	0.0011124789
53	0xbda32fd5	-0.079681076
54	0xbd8b6a84	-0.068074256
55	0x3da0c9e2	0.07851006
56	0x3daafd10	0.08349049
57	0x3d9b2a7c	0.075764626
58	0x3db626bb	0.08894106
59	0x3c77f271	0.015133486
60	0xbd81cca3	-0.063378595
61	0x3d08095a	0.033212043
62	0xbc9f965e	-0.01948088
63	0x3df2c356	0.118536636
64	0x3d86fc18	0.06591052
65	0xbdf0659c	-0.117381305
66	0x3d933fe7	0.07189923
67	0x3e0bae03	0.13640599
68	0x3e698f87	0.22808658
69	0xbcf0f90f	-0.029415635
70	0x3e270dab	0.16313808
71	0x3d8951a2	0.06705023
72	0x3b4854e6	0.0030568182
73	0xbded69c6	-0.1159244
74	0xbde8f8ca	-0.11375578
75	0xbe05172c	-0.1299712
76	0xbdb4d99b	-0.088305674
77	0xbdd6c93a	-0.104876
78	0xbdbe189f	-0.0928204
79	0xbddac283	-0.106816314
80	0xbd7a1549	-0.061055455
81	0xbd4c7c1a	-0.04992304
82	0xbdaa416e	-0.08313261
83	0xbceda448	-0.029009
84	0xbc72de69	-0.0148235345
85	0xbd9894bc	-0.07450244
86	0x3c8d36a4	0.017237969
87	0x3dfb0a45	0.12257818
88	0x3de527e7	0.111892514
89	0xbd38e289	-0.045137916
90	0x3ceab517	0.028650803
91	0xbdb2b2c7	-0.08725505
92	0xbc9ef17e	-0.019402262
93	0xbe02c0dc	-0.12768883
94	0xbdf91c96	-0.121636555
95	0xbd5f8b6f	-0.054576334
96	0x3d1c88e4	0.038216487
97	0x3d37e385	0.044894714
98	0x3d41dd79	0.047330353
99	0x3e5a9393	0.21345358
100	0xbbba9a63	-0.005694674
101	0xbd8f2228	-0.06988937
102	0xbe85f1b5	-0.2616097
103	0xbe836736	-0.2566468
104	0xbe9c27e7	-0.30499193
105	0xbca163da	-0.019700933
106	0xbd9650c4	-0.073396236
107	0xbca342a1	-0.019929232
108	0xbe002777	-0.12515055
109	0xbd958339	-0.07300419
110	0x3d424d3d	0.04743694
111	0x3e7f3271	0.24921586
112	0xbe0b32bd	-0.13593574
113	0x3d2f58d4	0.042809322
114	0x3e9b868c	0.3037609
115	0x3c0e8bc0	0.008700311
116	0x3ea0dcd8	0.3141849
117	0x3dc52c5c	0.096276015
118	0x3c8ccaee	0.017186608
119	0xbdda0578	-0.10645574
120	0xbdbb7dcf	-0.091548555
121	0xbd4ddd2b	-0.05025975
122	0x3dc62f9d	0.0967705
123	0x3dfe4d16	0.12417047
124	0x3db8beb0	0.09020746
125	0x3deaa705	0.11457638
126	0x3d162aff	0.036662098
127	0x3dbdb5aa	0.09263165
128	0x3d0db0b1	0.034592334
129	0xbd3df3cc	-0.04637508
130	0x3ca014f2	0.019541238
131	0x3cf8da38	0.030377492
132	0x3e01f1d2	0.12689903
133	0x3df23b2c	0.118276924
134	0x3d357d72	0.044309087
135	0xbdb8e048	-0.09027153
136	0x3b66c84e	0.0035214606
137	0x3d7b4208	0.06134227
138	0x3d2ce490	0.04221016
139	0x3d4d8cbd	0.050183047
140	0x3dfd5765	0.12370185
141	0x3dff31b2	0.124606505
142	0x3e63f45f	0.22261189
143	0xbd311f7b	-0.043242913
144	0xbdc2279a	-0.0948021
145	0xbdbcdc74	-0.092217356
146	0xbdf554be	-0.11979054
147	0x3c8baef8	0.017051205
148	0x3d311717	0.04323491
149	0x3da0f5c6	0.078593776
150	0xbdd0fd03	-0.10204508
151	0xbcd6d24a	-0.02622332
152	0xbdbee69e	-0.093213305
153	0xbd41a6a2	-0.047278054
154	0x3d89f2d8	0.06735772
155	0x3afdc32a	0.0019360532
156	0xbb9633fd	-0.004583834
157	0xbdce1a91	-0.10063661
158	0x3d0f3dba	0.034970976
159	0x3dd92765	0.10603217
160	0xbdd1cb7f	-0.10243892
161	0xbcc34801	-0.023838045
162	0x3c86a5dd	0.016436512
163	0x3e09ab21	0.13444187
164	0x3d829f07	0.06377988
165	0x3ca9a4c6	0.020708453
166	0xbd6537f2	-0.055961557
167	0xbd667857	-0.05626711
168	0xbcc87f78	-0.024474844
169	0x3cdd5ac8	0.027020827
170	0xbdb60944	-0.08888486
171	0x3e18da61	0.14927055
172	0xbc28a19b	-0.010292436
173	0x3e16fdcd	0.14745255
174	0x3e01ff49	0.1269504
175	0xbd837544	-0.06418851
176	0xbda8d5b9	-0.08243889
177	0xbd418a1f	-0.047250863
178	0xbd7ba1b7	-0.06143352
179	0xbda7356c	-0.08164486
180	0x3db87311	0.09006322
181	0x3e0df069	0.1386124
182	0xbe0f3dad	-0.13988371
183	0xbda34188	-0.079714835
184	0xbd5f126b	-0.054460924
185	0xbecc1f2a	-0.39867526
186	0x3dfb7c66	0.122795865
187	0x3d05611d	0.032563318
188	0x3db53f29	0.088499375
189	0x3bc6aee5	0.0060633295
190	0x3ce6623f	0.02812302
191	0xbd152efb	-0.036421757
192	0x3dbf941b	0.09354421
193	0xbca8155f	-0.020518003
194	0xbd7fe9fb	-0.062479
195	0x3dacac10	0.08431256
196	0xbd01e245	-0.031709928
197	0xbd186bb2	-0.03721208
198	0xbda15ba0	-0.07878804
199	0xbdc8ae93	-0.097989224
200	0xbd3192d8	-0.04335293
201	0xbb8033ac	-0.00391241
202	0xbc4c709f	-0.012478023
203	0x3b7445aa	0.0037272968
204	0xbd7b7026	-0.06138625
205	0xbda04579	-0.07825751
206	0x3d9de70a	0.07710083
207	0xbe87febf	-0.26561543
208	0x3c9ff990	0.01952818
209	0xbe05e706	-0.1307641
210	0xbd094ea0	-0.03352225
211	0xbdf376f4	-0.11887923
212	0xbd246b66	-0.040141486
213	0x3ccabcf0	0.024748296
214	0x3e070cc9	0.13188471
215	0x3e140498	0.14454877
216	0x3da9f2d5	0.0829827
217	0xbd93ac23	-0.07210567
218	0x3ceda9d7	0.02901165
219	0x3d84251c	0.064523906
220	0xbdcf4141	-0.10119868
221	0x3dab8981	0.08375836
222	0x3d9ea1d8	0.07745713
223	0xbdcd0cc7	-0.10012203
224	0xbc9735f7	-0.01845835
225	0xbcf3193c	-0.029675119
226	0xbdb91191	-0.09036554
227	0xbdbd3881	-0.09239293
228	0xbba4cc67	-0.0050292495
229	0xbcc7f67a	-0.024409521
230	0x3ae0dcd4	0.0017155656
231	0xbd8da410	-0.06916058
232	0xbddc33ea	-0.10752089
233	0x3dd0fc00	0.10204315
234	0x3d2dfb41	0.042475943
235	0x3d765aa2	0.060145028
236	0x3d5ea6fb	0.054358464
237	0x3e76ef1d	0.24114652
238	0x3dcf8594	0.101329
239	0x3e0a91de	0.13532206
240	0xbdb3a116	-0.08770959
241	0xbde934b0	-0.113870025
242	0x3da822e7	0.08209782
243	0x3d7f8ab7	0.06238815
244	0x3e5399c3	0.20664124
245	0xbe59b107	-0.21258937
246	0x3d9fac95	0.07796589
247	0xbe99614b	-0.2995704
248	0x3da53d36	0.08068316
249	0xbd2ebf49	-0.042662892
250	0xbe621e85	-0.22081955
251	0xbe43a69f	-0.1910653
252	0xbcc5fd71	-0.024168702
253	0x3d105b35	0.03524323
254	0x3e043c2a	0.12913576
255	0xbd8a95e4	-0.067668706

res3.conv2.bias f4 [8]
0	0x3d35a98e	0.044351153
1	0xbd9bb5cf	-0.076030366
2	0x3d9d0f0f	0.07668888
3	0x3db9501d	0.090484835
4	0xbda79c71	-0.08184136
5	0xbce9420e	-0.02847388
6	0x3ce05f1a	0.027389098
7	0x3d4ee829	0.050514374
