Checkpoints/evsrnet_t_x4.pth (torch, 45855 bytes, 24 tensors)

conv1.weight f4 [8, 3, 3, 3]
0	0xbcf18dda	-0.029486585
1	0x3e17b85b	0.1481642
2	0x3d4185e2	0.04724682
3	0xbe06f931	-0.13180996
4	0x3dcc8788	0.09986788
5	0x3d932e8e	0.07186614
6	0x3d375fb9	0.044769023
7	0xbdb48a3b	-0.08815428
8	0xbd26c3eb	-0.040714186
9	0x3e3fa77f	0.18716238
10	0x3e7e6a73	0.24845295
11	0xbeae424a	-0.3403495
12	0x3d201921	0.039086465
13	0xbe4a7b49	-0.19773592
14	0xbe89faff	-0.26949307
15	0xbcb6ecd9	-0.022329735
16	0x3dc6714d	0.09689579
17	0x3e8157fc	0.2526244
18	0xbd0cf17a	-0.034409977
19	0xbeb3ca83	-0.35115442
20	0x3e1cf5b2	0.153281
21	0x3cc28838	0.023746595
22	0xbe53f545	-0.20699032
23	0x3e521dc5	0.20519169
24	0x3d8b8448	0.0681234
25	0x3ddda983	0.108233474
26	0xbdf38b0d	-0.11891756
27	0xbc2530ea	-0.010082463
28	0xbd9872d5	-0.074437775
29	0xbda0d0bf	-0.07852315
30	0x3d34deda	0.04415784
31	0x3e5623e7	0.20912133
32	0x3bb5ee98	0.005552124
33	0xbd7d2459	-0.061802242
34	0x3d2c23f2	0.042026468
35	0xbe0868b4	-0.13321191
36	0x3dbf4c66	0.09340744
37	0x3de261fe	0.11053847
38	0x3b2ccbc9	0.0026366583
39	0xbdab44be	-0.08362721
40	0x3eb6e154	0.35718787
41	0x3e29eb26	0.16593608
42	0x3dc144ff	0.09436988
43	0x3e179a36	0.1480492
44	0x3d926c5b	0.071495734
45	0xbe115657	-0.14193092
46	0xbd0277b7	-0.03185245
47	0xbdbd5504	-0.09244731
48	0x3e2b19b1	0.16709019
49	0xbdc7d1cd	-0.09756813
50	0x3d00f6da	0.031485416
51	0x3dbaff1c	0.091306895
52	0xbe0ec37d	-0.1394176
53	0x3c0336dd	0.008008686
54	0x3e00ff38	0.12597358
55	0x3d466a06	0.048440956
56	0xbd18bf6c	-0.03729193
57	0x3e3ec7d0	0.1863091
58	0x3eac2ef0	0.3362956
59	0xbcc51ef5	-0.024062613
60	0xbccbddc9	-0.024886029
61	0x3dfec891	0.12440599
62	0xbc7d204e	-0.015449597
63	0x3d8e6da9	0.0695451
64	0x3e14c6bd	0.14528938
65	0x3d4ab454	0.04948838
66	0xbc688ffd	-0.014194486
67	0x3e2ed166	0.17072067
68	0x3d39531a	0.045245267
69	0xbd535196	-0.05159148
70	0xbdea9815	-0.114547886
71	0xbdb4abef	-0.08821856
72	0xbe45605e	-0.19275042
73	0x3def0064	0.116699964
74	0xbe31f37f	-0.17378043
75	0xbe357ae7	-0.17722665
76	0x3e528a80	0.20560646
77	0xbd1050fb	-0.03523348
78	0xbc6f6987	-0.014612562
79	0xbe0bdf1c	-0.13659328
80	0x3e10557e	0.14095113
81	0xbda6bf5b	-0.08141967
82	0xbd1a5c2a	-0.03768555
83	0xbdd81739	-0.10551304
84	0xbb698f48	-0.003563838
85	0x3cbd485a	0.023105789
86	0x3dfa108d	0.12210188
87	0xbde53e1a	-0.111934856
88	0xbe30002a	-0.17187563
89	0xbe24bfe4	-0.16088825
90	0x3d84cd47	0.06484466
91	0x3d3699d7	0.044580307
92	0x3dd496d3	0.1038033
93	0x3e546ca5	0.2074457
94	0xbda5fd83	-0.08104994
95	0xbdd58a42	-0.10426761
96	0x3ca7cf1a	0.020484496
97	0xbcfaead3	-0.030629551
98	0xbd956446	-0.07294516
99	0xbe04e09b	-0.12976305
100	0x3c5a5aae	0.013327284
101	0x3dfa0c8b	0.12209424
102	0x3e35b062	0.17743066
103	0x3c328d91	0.01089801
104	0x3dea620a	0.11444481
105	0xbda42879	-0.08015532
106	0x3e24165d	0.16024156
107	0xbe01ee42	-0.12688544
108	0x3e69c498	0.22828901
109	0x3cfd0f99	0.030891227
110	0xbc2420e5	-0.010017608
111	0x3da1c148	0.078981936
112	0x3ea01e01	0.3127289
113	0xbc8484e5	-0.01617665
114	0x3e2b80bd	0.16748329
115	0x3ce5bdbd	0.028044576
116	0xbc787068	-0.0151635185
117	0x3c296c8c	0.010340821
118	0xbdcfbb85	-0.101431884
119	0x3da30439	0.0795979
120	0xbe14100b	-0.14459245
121	0x3da02fde	0.0782163
122	0xbe5985cf	-0.2124245
123	0xbdc55b91	-0.096366055
124	0x3d991840	0.074753284
125	0xbd48fc0c	-0.049068496
126	0xbd89a010	-0.067199826
127	0xbe5ce22e	-0.21570656
128	0xbdb3bcc3	-0.08776238
129	0xbdc914cc	-0.0981842
130	0x3e4cbfd1	0.19995047
131	0x3e31dd7a	0.17369643
132	0x3e14a4d7	0.14516006
133	0x3dd0c717	0.101942234
134	0x3c8cd2a8	0.017190292
135	0xbc603ef7	-0.013686887
136	0xbe0e0754	-0.13869983
137	0xbdb7f6ce	-0.08982621
138	0xbcba5ce6	-0.022749376
139	0xbdc0d34a	-0.094153
140	0x3b74312d	0.0037260756
141	0x3dd33eab	0.10314687
142	0x3e2b0b16	0.16703448
143	0x3db0a6a1	0.08625532
144	0x3dd35775	0.103194155
145	0x3e66e96d	0.22549982
146	0xbd9ca93c	-0.076494664
147	0xbe305ff1	-0.17224099
148	0xbd5ac715	-0.053412516
149	0xbcdb27f6	-0.026752453
150	0x3c6ff0f2	0.014644848
151	0x3d89dfbc	0.06732127
152	0x3cabfd59	0.020994829
153	0xbdc6112d	-0.09671245
154	0x3e34f543	0.17671685
155	0x3db8ca9e	0.09023021
156	0x3e3fb902	0.18722919
157	0x3eaa0a61	0.33211043
158	0x3e549008	0.20758069
159	0xbe09c2ab	-0.13453166
160	0x3e31cfe9	0.17364468
161	0xbde711e6	-0.11282711
162	0x3d59b19b	0.053147893
163	0x3d27048c	0.04077582
164	0xbd6a7dcd	-0.05724888
165	0x3b55b3d8	0.0032608416
166	0x3e6c52f4	0.23078519
167	0xbe306e79	-0.17229642
168	0xbbb90330	-0.005646132
169	0x3e211d93	0.15733938
170	0x3e2003dd	0.15626474
171	0xbd68d685	-0.056845207
172	0x3d51db7a	0.0512347
173	0xbdc9467c	-0.09827897
174	0xbb559d54	-0.0032594996
175	0xbd7720df	-0.060334083
176	0xbdf5f7ea	-0.120101765
177	0x3e17a82e	0.14810249
178	0x3e2bf3c7	0.16792212
179	0x3e39e4e8	0.18153727
180	0xbc977363	-0.018487638
181	0x3dfba943	0.122881435
182	0x3c8454d1	0.016153725
183	0x3daf4ea6	0.08559923
184	0x3e6ef69b	0.2333626
185	0xbdcbc8e2	-0.09950425
186	0xbe02bd73	-0.12767582
187	0x3d7b0705	0.06128599
188	0xbdaa7f66	-0.083250806
189	0x3e609c2c	0.21934575
190	0x3e827e1d	0.25486842
191	0x3d9d041f	0.07666802
192	0xbe609409	-0.21931471
193	0xbe53dd55	-0.206899
194	0xbe40f69b	-0.18844073
195	0xbe517201	-0.20453645
196	0xbdadf715	-0.08494393
197	0x3d5707a2	0.052497514
198	0x3e1c0452	0.15236023
199	0x3e0cbb7e	0.13743398
200	0x3e120721	0.14260532
201	0xbdffe39c	-0.12494585
202	0xbe060005	-0.13085945
203	0xbd7cf660	-0.0617584
204	0x3e245339	0.16047372
205	0x3d452203	0.04812814
206	0x3e5a2e56	0.21306738
207	0xbd5de6cb	-0.05417518
208	0x3b4a8e6a	0.003090764
209	0x3d7e476c	0.062079832
210	0xbdd85459	-0.10562963
211	0xbddc17d0	-0.107467294
212	0xbda731aa	-0.081637695
213	0x3dc8bc85	0.09801582
214	0xbd529ef2	-0.051421113
215	0xbe7758e1	-0.24154998

conv1.bias f4 [8]
0	0xbd5c89ca	-0.053842343
1	0x3cd4e4ac	0.025987945
2	0x3e1a8686	0.15090379
3	0x3e3ecf6c	0.18633813
4	0x3d396a70	0.045267522
5	0xbd31ad89	-0.043378387
6	0xbd479ded	-0.048734594
7	0xbe9fec88	-0.31235147

res1.conv1.weight f4 [8, 8, 3, 3]
0	0xbe8d05ed	-0.27543584
1	0x3f2e2064	0.68018174
2	0xbe039ebc	-0.12853521
3	0xbeb59990	-0.3546872
4	0xbf2fbcbb	-0.68647355
5	0xbf261877	-0.6488108
6	0x3ec1f166	0.37879485
7	0xbe67d81a	-0.2264103
8	0xbe273326	-0.16328105
9	0xbcb16ea0	-0.021659195
10	0xbc8cca5b	-0.017186334
11	0x3d5e17fc	0.054222092
12	0xbdf63b7d	-0.12023065
13	0xbdb69185	-0.089144744
14	0xbe021c72	-0.12706164
15	0xbc7c4b8a	-0.015398869
16	0xbcea8a7f	-0.028630493
17	0xbd9d07c2	-0.07667495
18	0xbd567dec	-0.052366182
19	0x3d87b74e	0.066267595
20	0x3d1bd125	0.038041253
21	0x3d4cf554	0.05003865
22	0xbd7caa70	-0.06168598
23	0xbcc8129d	-0.024422938
24	0x3d9a3e57	0.07531422
25	0xbdbf2b0c	-0.093343824
26	0xbd61ebd0	-0.05515653
27	0xbc33c112	-0.0109713245
28	0x3d374997	0.044747915
29	0xbda298ae	-0.079392776
30	0x3c09651d	0.008385924
31	0x3c34b285	0.0110288905
32	0x3d422011	0.047393862
33	0xbcff4ecf	-0.031165509
34	0x3d2ec5f1	0.04266924
35	0xbd86ffd6	-0.065917656
36	0x3d75de6c	0.06002657
37	0x3d6ed677	0.05831
38	0x3dd3634a	0.10321672
39	0x3d09f6c6	0.033682607
40	0xbb34439e	-0.0027506123
41	0x3d10a42b	0.035312813
42	0xbd24c8d5	-0.04023059
43	0xbcf8f873	-0.030391907
44	0x3ca2a5f7	0.019854529
45	0x3df3be35	0.119015135
46	0x3dcc2655	0.09968249
47	0xbd9caa39	-0.07649655
48	0xbc25a983	-0.0101112155
49	0x3d809315	0.06278054
50	0x3cf939ab	0.030423006
51	0x3ce094f4	0.027414776
52	0x3d9f73f5	0.07785789
53	0xbd699c90	-0.057034075
54	0x3d8afdcd	0.0678669
55	0xbd58e6ab	-0.052954357
56	0x3cb57713	0.022151506
57	0xbd82746a	-0.063698605
58	0xbdec6ece	-0.11544572
59	0x3dba3704	0.09092525
60	0x3de407fb	0.11134335
61	0xbd95cae9	-0.07314093
62	0x3c8415b0	0.016123623
63	0xbee9b5f9	-0.45646647
64	0x3ef684d3	0.48148212
65	0xbf87bf86	-1.0605323
66	0xbef047f7	-0.46929905
67	0x3e613bfe	0.21995541
68	0xbe85e6fb	-0.26152787
69	0xbe3454e7	-0.17610513
70	0x3e6c4009	0.23071302
71	0x3e236f44	0.15960413
72	0xbe05908c	-0.13043422
73	0xbe588757	-0.21145378
74	0xbdbf0daa	-0.09328778
75	0x3d169c34	0.03677006
76	0xbfa1f989	-1.2654277
77	0x3ed3f9c8	0.41401505
78	0xbedd4e04	-0.43223584
79	0xbf324da6	-0.6964973
80	0xbf03e3c2	-0.51519406
81	0xbd12f4ff	-0.035878178
82	0x3cebc2a6	0.028779339
83	0xbe03263f	-0.12807558
84	0x3d0dbd6c	0.034604475
85	0xbd484697	-0.048895445
86	0xbd68d86d	-0.056847025
87	0x3bae1671	0.005312734
88	0xbdacf840	-0.084457874
89	0xbc892f27	-0.016746117
90	0xbbbd31cd	-0.005773759
91	0xbd8bfd17	-0.068353824
92	0xbc91681c	-0.017749839
93	0x3c2ea7bc	0.010660108
94	0xbcb5a4ef	-0.022173373
95	0x3db4dbfd	0.08831022
96	0x3cc31e2e	0.023818102
97	0xbcc7342e	-0.024316873
98	0x3d2e2a4f	0.042520817
99	0xbd26b7bc	-0.040702567
100	0xbcb4d62b	-0.02207478
101	0x3d0719d7	0.032983627
102	0x3dcd7fa4	0.10034111
103	0xbd8fafeb	-0.070159756
104	0xbdb17f2e	-0.08666836
105	0x3d613510	0.054982245
106	0x3d0bb755	0.034110386
107	0xbc3fac3e	-0.011698781
108	0x3d0f6cfb	0.03501604
109	0x3de57222	0.1120341
110	0x3da687b7	0.08131354
111	0xbc88bf2a	-0.016692717
112	0x3d392268	0.045198828
113	0x3dd66267	0.104679875
114	0xbbd2c3b7	-0.0064320224
115	0xbe081ff7	-0.13293444
116	0xbb722aff	-0.0036951897
117	0x3af69332	0.0018812178
118	0x3e0e83d0	0.1391747
119	0x3d9d0c6c	0.07668385
120	0xbdae76b0	-0.085187316
121	0xbc2a62dc	-0.0103995465
122	0xbd8b985d	-0.0681617
123	0x3d20e9fd	0.03928565
124	0x3ce9d8aa	0.028545696
125	0x3c567e66	0.013091659
126	0x3da9973b	0.08280798
127	0xbb9c92de	-0.00477825
128	0x3c16d3df	0.009205787
129	0x3c9bfaf0	0.019040555
130	0x3cabd1d9	0.020974087
131	0x3b7318f6	0.0037093735
132	0x3d925487	0.071450286
133	0x3d8d1640	0.068890095
134	0xbdb3ff3a	-0.08788915
135	0x3e62e54f	0.22157787
136	0xbe4873ef	-0.19575475
137	0x3c8e61c3	0.0173806
138	0x3f26474d	0.64952546
139	0xbf67725c	-0.90408874
140	0xbe70d041	-0.23516943
141	0x3e4d6af7	0.20060335
142	0xbec0caac	-0.37654626
143	0xbe917db5	-0.2841622
144	0xbd80bae5	-0.06285647
145	0xbd22f3ec	-0.039783403
146	0x3d970114	0.073732525
147	0xbd86aba9	-0.0657571
148	0xbdac7ded	-0.08422456
149	0xbdd6f6c5	-0.10496286
150	0xbd642316	-0.055697523
151	0xbc1e0e2f	-0.009646936
152	0xbd76dca7	-0.060269024
153	0xbd684da8	-0.056714684
154	0xbddff61d	-0.10935614
155	0xbd3d3d0a	-0.04620079
156	0xbc08f83f	-0.008359968
157	0x3d44c222	0.048036702
158	0xbc400f1d	-0.011722353
159	0xbd6ba48d	-0.057529975
160	0xbdb161af	-0.0866121
161	0xbd51868a	-0.051153697
162	0x3c956a23	0.018239086
163	0xbdf2567b	-0.11832901
164	0xbde1fd13	-0.11034598
165	0xbda14b8d	-0.07875738
166	0xbd1abb8d	-0.03777652
167	0xbda8cb46	-0.08241896
168	0xbda56036	-0.080749914
169	0xbc799d58	-0.015235268
170	0x3cda4211	0.026642831
171	0xbdebdf23	-0.11517169
172	0x3c650191	0.013977424
173	0xbcfc04c4	-0.030763991
174	0x3d7e0628	0.06201759
175	0xbd940f02	-0.07229425
176	0x3c999d78	0.018751845
177	0x3cda61c8	0.026657954
178	0xbde9c484	-0.114144355
179	0xbbb32c4e	-0.005467928
180	0x3ca34f62	0.019935314
181	0xbd49f5c0	-0.04930663
182	0xbd640bc3	-0.05567528
183	0xbcab03fa	-0.02087592
184	0x3bce43ef	0.0062947194
185	0x3adeefa6	0.0017008677
186	0x3ddaba72	0.10680093
187	0xbda4579e	-0.08024524
188	0xbd24e69c	-0.04025899
189	0xbcd89635	-0.026438812
190	0x3cee9bc9	0.029127019
191	0xbc00ca2c	-0.0078607015
192	0x3c73c59d	0.014878658
193	0x3d357565	0.04430141
194	0xbdf40dc8	-0.11916691
195	0x3c212f3e	0.009837924
196	0xbd3abaa6	-0.045588158
197	0x3ccb791a	0.02483802
198	0xbdae85d2	-0.08521618
199	0xbd1aa52a	-0.03775517
200	0x3cc5137e	0.024057146
201	0xbdac4390	-0.08411324
202	0x3db72473	0.08942499
203	0x3d62a640	0.05533433
204	0xbd97335c	-0.07382843
205	0xbdecc924	-0.11561802
206	0x3dbf814f	0.093508355
207	0x3d882082	0.066468254
208	0x3d12d35e	0.035846107
209	0x3d697719	0.056998346
210	0xbdea3065	-0.11435012
211	0x3cd89ed8	0.02644293
212	0x3d9e1d19	0.07720394
213	0x3dc90203	0.09814837
214	0xbc4eff6d	-0.01263414
215	0xbdbd2c9f	-0.092370264
216	0x3e2fa079	0.17151059
217	0xbde39cb9	-0.11113877
218	0x3d15d8e2	0.03658379
219	0x3f573edf	0.8408031
220	0xbb101a93	-0.0021988496
221	0x3f03c944	0.5147898
222	0x3f0e0abd	0.55485135
223	0xbf2445ef	-0.6416921
224	0xbece7795	-0.4032561
225	0xbcdb3804	-0.026760109
226	0xbe277fa3	-0.16357283
227	0xbe07d919	-0.1326641
228	0xbd74e9d0	-0.059793293
229	0x3d6d92fd	0.058001507
230	0xbd4e457f	-0.050359245
231	0xbbf9e906	-0.0076266555
232	0xbdb096e3	-0.08622529
233	0xbce8496c	-0.028355323
234	0xbdb6d38c	-0.08927068
235	0xbaa4bdcc	-0.0012568771
236	0xbb81d679	-0.0039623347
237	0xbddc0d3f	-0.10744714
238	0xbd6bf8f0	-0.057610452
239	0xbdc46610	-0.095897794
240	0x3d6259b5	0.055261333
241	0x3e035534	0.12825471
242	0xbe03569d	-0.12826009
243	0x3dd93abe	0.10606907
244	0xbcaadb08	-0.020856395
245	0xbcefa475	-0.029253224
246	0xbe0b4fa9	-0.13604607
247	0x3e6a1fdd	0.22863717
248	0x3d1db9c8	0.038507253
249	0xbde2b8bf	-0.11070394
250	0xbd2c911e	-0.042130582
251	0x3da7e133	0.0819725
252	0x3d348252	0.044069596
253	0x3e68e6f0	0.22744346
254	0x3d3c38db	0.04595266
255	0x3e585175	0.21124823

res1.conv1.bias f4 [8]
0	0x3d7ef9ec	0.062250063
1	0xbc620550	-0.013795212
2	0xbd2e13e5	-0.04249944
3	0x3d3c3072	0.04594464
4	0xbb3f526d	-0.0029193417
5	0x3c9bf279	0.019036518
6	0x3d02e346	0.031955026
7	0x3d621ef5	0.055205304

res1.conv2.weight f4 [8, 8, 3, 3]
0	0x3d097897	0.03356227
1	0x3dc0891d	0.09401152
2	0xbd62e088	-0.05538991
3	0xbc16134f	-0.009159877
4	0x3da0fb49	0.07860429
5	0x3d66d82e	0.05635851
6	0x3d337891	0.043816153
7	0x3b263ac2	0.0025364612
8	0x3d914507	0.07093244
9	0x3d6222dd	0.05520903
10	0xbc8e4fd0	-0.017372042
11	0x3ca27345	0.019830355
12	0x3e0076f2	0.12545374
13	0x3e4aff37	0.19823919
14	0x3d3d90dd	0.04628073
15	0xbe260e15	-0.1621631
16	0xbd655da3	-0.055997502
17	0x3da4ed0e	0.08053027
18	0x3d422d5a	0.047406532
19	0xbdc5e242	-0.09662296
20	0x3d4a9284	0.049456134
21	0xbd1372e3	-0.035998236
22	0xbd50dc84	-0.05099155
23	0x3b7e57b6	0.0038809604
24	0xbc4d8199	-0.0125431055
25	0x3cbd1223	0.023079937
26	0xbd177f63	-0.03698672
27	0x3e21b8bd	0.15793128
28	0x3de73f4d	0.112913705
29	0xbd3f8e61	-0.046766642
30	0xbdd4a3c0	-0.10382795
31	0x3d6d1f7b	0.05789135
32	0x3cfcceeb	0.030860385
33	0x3da4e92c	0.080522865
34	0xbd159a27	-0.036523964
35	0x3db5f069	0.08883745
36	0xbd4b33fe	-0.04961013
37	0x3db1daa2	0.08684279
38	0x3e4050e7	0.18780862
39	0x3da093f0	0.07840717
40	0xbc9c8bbb	-0.019109597
41	0xba29ae62	-0.00064728234
42	0xbdce0460	-0.10059428
43	0x3d8f1fb1	0.069884665
44	0x3d9d4d08	0.07680708
45	0x3c1c4168	0.009537078
46	0x3db3a26d	0.08771215
47	0x3dea236e	0.11432539
48	0x3dd5aa7b	0.10432907
49	0x3dfc6a27	0.123249345
50	0xbe1fb77e	-0.1559734
51	0xbd9685c2	-0.07349731
52	0xbc225ea7	-0.009910262
53	0xbd56497a	-0.052316166
54	0x3bb0a2e6	0.0053905128
55	0x3d8129f3	0.06306829
56	0x3dcc3ce8	0.099725544
57	0x3e3d70ce	0.18500063
58	0x3daa88bc	0.08326861
59	0x3e406b05	0.18790825
60	0xbe1ba82d	-0.15200873
61	0xbe06274a	-0.13100925
62	0x3ba0391c	0.0048896205
63	0xbc00e4ae	-0.0078670215
64	0xbc4c16df	-0.012456625
65	0xbdc96f3c	-0.098356694
66	0x3c257d7c	0.010100719
67	0x3b2b0a0a	0.0026098513
68	0xbdfb6aca	-0.12276228
69	0x3de1feaa	0.110349014
70	0xbdc27f42	-0.09496929
71	0xbcce9e24	-0.025221892
72	0x3c084060	0.008316129
73	0xbdbb6e86	-0.0915194
74	0x3d558745	0.052130956
75	0xbd6dc18b	-0.058045905
76	0xbdfef42d	-0.124489166
77	0x3db68d46	0.089136645
78	0xbd114ad9	-0.03547177
79	0x3cdfe19a	0.027329255
80	0xbd1ddc33	-0.038540076
81	0xbb4d4f04	-0.0031327615
82	0xbd66851e	-0.056279294
83	0x3d0dba20	0.03460133
84	0xbd309888	-0.043114215
85	0xbd91a9f4	-0.07112494
86	0x3d1541db	0.036439758
87	0xbccee277	-0.025254471
88	0xbcbf2f04	-0.023337848
89	0xbacf2988	-0.0015805224
90	0x3da3dce3	0.08001115
91	0x3dcb136e	0.09915815
92	0xbc4f30af	-0.012645884
93	0x3c42378c	0.011854064
94	0xbd087c22	-0.033321507
95	0x3da30eb2	0.07961787
96	0xbbd53970	-0.006507091
97	0x3d7ae218	0.061250776
98	0xbd77878b	-0.060432
99	0xbc9d0662	-0.019168083
100	0x3d8832f8	0.066503465
101	0x3d859133	0.06521835
102	0xbdcf724d	-0.10129223
103	0xbd30b360	-0.043139815
104	0x3ddb649b	0.10712548
105	0xbd179e34	-0.03701611
106	0x3c45334a	0.012036154
107	0xbd29b5ca	-0.041433133
108	0xbd8f8fbb	-0.07009836
109	0x3d8c834c	0.068609804
110	0x39cbb2c5	0.0003885237
111	0x3d2188cb	0.039437097
112	0x3ccf3332	0.025292967
113	0x3e020aab	0.12699382
114	0x3ddf963f	0.10917329
115	0xbbf8e9db	-0.007596237
116	0xbd027697	-0.031851377
117	0x3d0497dd	0.03237139
118	0xbe1b19d9	-0.15146579
119	0xbc177d6d	-0.009246212
120	0x3c89e9d2	0.016835127
121	0x3c37c9a0	0.011217505
122	0xbd98bc4b	-0.07457789
123	0x3d2c11a6	0.04200902
124	0xbda7301b	-0.08163472
125	0xbd592156	-0.053010307
126	0x3d33e62c	0.04392068
127	0xbdfa0893	-0.12208667
128	0xbd904aa8	-0.070454895
129	0x3dccc1d6	0.09997909
130	0xbde16002	-0.1100464
131	0x3d6b1272	0.057390638
132	0x3d14aaaf	0.03629559
133	0x3e0a0cad	0.13481398
134	0xbd9da261	-0.07696987
135	0xbdd1eb3c	-0.102499455
136	0x3d3c803b	0.046020728
137	0xbda02c92	-0.07821001
138	0x3dea8962	0.11451985
139	0xbd427512	-0.04747493
140	0x3de3150b	0.11087998
141	0x3d8e2c8b	0.0694209
142	0xbe080829	-0.13284363
143	0x3dacea82	0.08443166
144	0x3d58da05	0.052942295
145	0xbdf21d4e	-0.11821996
146	0xbc9c870d	-0.019107366
147	0x3c067e2d	0.008208794
148	0x3d996b03	0.07491114
149	0xbd02113c	-0.031754717
150	0x3d0b7098	0.034042925
151	0x3c719300	0.01474452
152	0x3dc157a2	0.09440543
153	0xbdf7c219	-0.12097568
154	0xbda6f3e5	-0.08151988
155	0x3de6abf4	0.11263266
156	0x3da2624a	0.079289034
157	0x3db94248	0.09045845
158	0x3c13aafb	0.009012933
159	0xbd609381	-0.05482817
160	0xbda6c083	-0.081421874
161	0x3d8930d9	0.0669877
162	0xbc716109	-0.014732608
163	0xbd5729fa	-0.052530266
164	0x3cf1fdfc	0.029540055
165	0x3def2ba1	0.116782434
166	0xbced852d	-0.028994167
167	0x3de1ba33	0.11021843
168	0x3d2898a4	0.041161194
169	0x3d726ed4	0.059187725
170	0x3de6f8d7	0.11277931
171	0x3de1df13	0.11028876
172	0x3d16b4a2	0.03679336
173	0x3d7103f3	0.058841657
174	0xbb396a8e	-0.0028292271
175	0xbdf1a897	-0.11799734
176	0x3d4fcd07	0.05073264
177	0x3d5b9178	0.053605527
178	0xbd55dc2d	-0.05221193
179	0xbd367844	-0.044548288
180	0x3d52cc82	0.051464565
181	0xbc1c1595	-0.00952663
182	0xbde63a95	-0.112416424
183	0x3d34ab07	0.044108417
184	0x3c6b0ce5	0.014346336
185	0x3d9f048c	0.07764539
186	0x3cf988dd	0.03046077
187	0xbc7f1083	-0.015567902
188	0x3b7292a0	0.0037013665
189	0xbd9198c8	-0.07109219
190	0x3bf4ba1d	0.0074684755
191	0x3dd29e19	0.10284061
192	0xbdaa827c	-0.08325669
193	0x3d7d1274	0.061785176
194	0xba66ad22	-0.00087996025
195	0x3c625fda	0.013816798
196	0xbd375083	-0.044754516
197	0x3d23148d	0.03981452
198	0x3d2e8025	0.042602677
199	0xbd26cdae	-0.040723495
200	0x3deacd4b	0.11464938
201	0xbc78c63f	-0.015183984
202	0xbd725b44	-0.05916907
203	0x3bb7e05a	0.0056114616
204	0x3d2b0fb9	0.04176304
205	0xbd4a1af3	-0.049342107
206	0x3d20e42b	0.039280098
207	0xbc5a1dcf	-0.013312771
208	0x3b29f375	0.0025932465
209	0xbd29a1cf	-0.04141408
210	0xbda31c68	-0.079644024
211	0xbd68da8b	-0.056849044
212	0x3d897219	0.067112155
213	0xbcd78aa7	-0.026311232
214	0x3d2b8fe2	0.041885264
215	0xbb0bafa0	-0.0021314397
216	0x3d4d0386	0.05005219
217	0xbd1eaab6	-0.03873702
218	0xbd019d6f	-0.03164428
219	0xbd3fb1cb	-0.046800416
220	0xbd0fb5c8	-0.03508547
221	0xbcbded3c	-0.023184411
222	0xbdb9c41c	-0.09070608
223	0xbd3d25ed	-0.046178747
224	0x3c4851d4	0.012226541
225	0x3cfa5e5a	0.030562568
226	0xbdfaa8f5	-0.12239257
227	0x3d9cb72e	0.07652126
228	0x3d77c056	0.06048616
229	0x3dc06cdf	0.093957655
230	0xbdcc3041	-0.09970141
231	0x3d88ca98	0.06679267
232	0xbd603b06	-0.05474379
233	0xbd6fad8c	-0.058515117
234	0x3d84a7f5	0.06477348
235	0xbdad7895	-0.08470265
236	0xbd8bd69a	-0.068280414
237	0x3db694d2	0.08915104
238	0xbd02bbab	-0.031917255
239	0xbc158fcf	-0.009128525
240	0x3dedace6	0.116052434
241	0xbd8ce30d	-0.06879244
242	0x3ccf7eee	0.02532908
243	0xbb2fa1b7	-0.002679927
244	0x3d969b98	0.07353896
245	0xbde78d96	-0.11306302
246	0xba9ec57f	-0.0012113302
247	0xbda7975f	-0.081831686
248	0x3d011226	0.03151145
249	0x3e1e61d5	0.15467007
250	0x3d7a858f	0.061162528
251	0xbabe919a	-0.0014539242
252	0xbc82cba5	-0.015966246
253	0x3c51d94f	0.012808158
254	0xbb66e669	-0.003523255
255	0x3d657404	0.056018844

res1.conv2.bias f4 [8]
0	0x3caff8e4	0.021480985
1	0x3d84f123	0.06491306
2	0x3d4f368a	0.050589122
3	0xbd224f2f	-0.039626297
4	0x3b3320c7	0.002733277
5	0x3d815d12	0.0631658
6	0x3c04bf08	0.008102186
7	0x3def5253	0.11685624

res2.conv1.weight f4 [8, 8, 3, 3]
0	0xbd414f42	-0.047194727
1	0xbc5599fe	-0.013037203
2	0x3d924e73	0.07143869
3	0x3cb28898	0.021793649
4	0x3d062f88	0.032760173
5	0x3da7511d	0.08169768
6	0xbde7ce79	-0.113186784
7	0x3d47ef91	0.048812453
8	0xbe0f0536	-0.13966832
9	0xbd3f364d	-0.046682645
10	0xbd84c015	-0.06481949
11	0x3d2b75ad	0.04186027
12	0x3e02c583	0.12770657
13	0x3df0efc7	0.11764484
14	0xbcccd448	-0.025003567
15	0x3dacaae4	0.08431032
16	0x3d8f4dfe	0.06997298
17	0xbd569a8f	-0.052393492
18	0x3d15293c	0.036416277
19	0x3c93018e	0.017945077
20	0xbd8ff6dc	-0.070295066
21	0xbcb76050	-0.022384793
22	0xbba52b2b	-0.0050405464
23	0x3d868946	0.065691516
24	0xbc2f6230	-0.010704562
25	0xbd3f16c3	-0.046652567
26	0x3dc4d8f5	0.09611694
27	0x3ddfa943	0.10920956
28	0xbd98b836	-0.074570104
29	0x3d7f2ece	0.062300496
30	0xbd9c98b6	-0.07646315
31	0x3ddfb82f	0.10923802
32	0x3d691077	0.056900468
33	0xbceba6cd	-0.02876606
34	0x3de214d1	0.11039127
35	0xbcc0def0	-0.023543805
36	0x3d84fa2b	0.06493028
37	0x3d166b82	0.03672362
38	0x3c43c7b5	0.011949469
39	0xbdc0319d	-0.09384463
40	0x3d86f627	0.065899186
41	0x3bca19ce	0.006167627
42	0xbdf83f79	-0.121214814
43	0xbd3c7c1e	-0.046016805
44	0xbd9a9bdc	-0.07549259
45	0xbd7614b1	-0.060078327
46	0xbdb064b3	-0.08612957
47	0x3d0b94b7	0.034077372
48	0x3d8f71d6	0.07004134
49	0xbd7e2adf	-0.062052604
50	0xbe00a2c2	-0.12562087
51	0xbb440c17	-0.0029914433
52	0xbdcca3be	-0.09992169
53	0x3d58a069	0.052887354
54	0x3dfe9d41	0.124323376
55	0xbdb2222e	-0.086979255
56	0xbdd3df8f	-0.10345375
57	0xbd7d8c4b	-0.061901372
58	0xbd801ca1	-0.062554605
59	0xbd42bfc7	-0.047546174
60	0x3d2fac7b	0.0428891
61	0x3d5f06e5	0.054449935
62	0x3d9109d3	0.07081952
63	0x3c9feb90	0.019521505
64	0x3d9cead7	0.0766198
65	0xbd3ad4a0	-0.04561293
66	0x3d20fb90	0.03930241
67	0x3dd75540	0.10514307
68	0x3d7d2540	0.061803102
69	0xbe35a52a	-0.17738786
70	0xba7335d0	-0.0009277733
71	0x3d7273e1	0.059192542
72	0xbc359868	-0.0110837
73	0x3e04f229	0.12983002
74	0x3c0c7f54	0.008575279
75	0xbe218e1a	-0.15776864
76	0xbda832f9	-0.08212847
77	0xbcf7bc72	-0.030241225
78	0xbd00eb15	-0.03147419
79	0x3c187833	0.0093060015
80	0xbd244c88	-0.04011205
81	0xba61be17	-0.00086113944
82	0x3dd130de	0.10214399
83	0xbc2685fd	-0.010163781
84	0xbd9d4db2	-0.07680835
85	0xbcc737e4	-0.024318643
86	0x3c6319b7	0.013861111
87	0x3e04c64a	0.12966266
88	0x3db643f7	0.08899682
89	0xbc401176	-0.011722913
90	0xbc2bb9d8	-0.01048132
91	0x3d457203	0.048204433
92	0x3dc17c7d	0.094475724
93	0xbc893423	-0.016748494
94	0xbd63db67	-0.05562916
95	0x3d0fc53a	0.0351002
96	0x3de13b60	0.10997653
97	0x3db35350	0.08756125
98	0xbdaf0c3c	-0.085472554
99	0xbe3ca1cb	-0.18421094
100	0xbd4d07f1	-0.0500564
101	0xbaf12384	-0.0018397425
102	0xbe488d52	-0.1958516
103	0x3d355b4d	0.044276524
104	0x3daf114c	0.08548221
105	0xbc280a13	-0.010256308
106	0x3d941bac	0.072318405
107	0x3e335d5a	0.1751608
108	0xbcbd79be	-0.02312934
109	0x3def9c42	0.11699726
110	0xbd91eaf4	-0.07124892
111	0x3e0d0347	0.13770781
112	0x3d7e263d	0.062048186
113	0x3e140d85	0.14458282
114	0x3d8e4e5f	0.06948542
115	0xbd9b12d5	-0.07571951
116	0x3dabf7a8	0.08396846
117	0x3c525a39	0.012838894
118	0x3c35aa45	0.011087959
119	0x3e047b8e	0.12937757
120	0xbe1b09c2	-0.15140441
121	0xbe488c38	-0.19584739
122	0xbd703c0b	-0.05865101
123	0xbd8679b2	-0.0656618
124	0xbe24e83a	-0.16104212
125	0xbd8e157f	-0.06937694
126	0xbc1f24ba	-0.009713346
127	0xbd869d67	-0.06572991
128	0xbd5f84e7	-0.054570105
129	0xbd0ba208	-0.034090072
130	0xbc4827f4	-0.012216557
131	0x3da31767	0.07963448
132	0x3da1d70b	0.07902344
133	0xbd3c842c	-0.046024486
134	0x3d14bed0	0.036314785
135	0xbcaece81	-0.021338703
136	0xbe488379	-0.19581403
137	0xbccc86bd	-0.024966592
138	0x3e0a8f27	0.13531171
139	0xbdd2bc65	-0.1028984
140	0x3e272bd8	0.16325319
141	0x3e2debcc	0.1698448
142	0xbe14eef9	-0.14544286
143	0x3d0e8820	0.034797788
144	0x3db6bedc	0.08923122
145	0x3e422892	0.18960789
146	0x3c4e312a	0.012584964
147	0x3d84b1fe	0.06479262
148	0xbd28238f	-0.041049536
149	0xbd7702c0	-0.060305357
150	0xbc94f05c	-0.018181019
151	0xbe0c5d40	-0.13707447
152	0xbedcffe8	-0.4316399
153	0xbdb569f7	-0.08858102
154	0xbd9a5eda	-0.07537623
155	0x3d3f383a	0.04668448
156	0xbe8ddb8e	-0.2770657
157	0x3c15cb9d	0.0091427835
158	0x3dadb4c1	0.08481742
159	0x3d8724ce	0.06598817
160	0x3e04e38d	0.12977429
161	0x3d352bdb	0.044231277
162	0x3e63a61a	0.22231331
163	0x3d9def8e	0.07711707
164	0x3def317c	0.1167936
165	0xbe215350	-0.15754437
166	0x3ce79c98	0.028272912
167	0xbcd74746	-0.026279103
168	0xbe0352e6	-0.12824592
169	0xbd4c8e59	-0.04994044
170	0xbdd3c667	-0.103405766
171	0x3e4bbce5	0.19896276
172	0x3dfaa24e	0.122379884
173	0x3e773b7f	0.2414379
174	0xbcf2bd20	-0.029631197
175	0xbe98d055	-0.29846445
176	0x3d05b941	0.032647375
177	0x3c0f5e5d	0.008750525
178	0x3cab983f	0.02094662
179	0xbdad1a77	-0.084523134
180	0xbe3c19ae	-0.18369171
181	0x3ba2c0d7	0.004966836
182	0xbe8559f5	-0.26045194
183	0x3cf24bd2	0.02957717
184	0xbc3cefb0	-0.011531755
185	0x3cc847cd	0.0244483
186	0x3e8abe14	0.27098143
187	0x3c8f0ff0	0.017463654
188	0xbc43683a	-0.011926705
189	0xbd1f0177	-0.038819756
190	0x3d7a73a1	0.06114543
191	0x3d1fc11d	0.039002527
192	0xbd67f4b8	-0.056629866
193	0x3e2ff9e8	0.17185175
194	0xbdaec087	-0.085328154
195	0xbdff5858	-0.12468022
196	0x3dab9d23	0.08379581
197	0x3d402219	0.046907518
198	0x3e003887	0.12521563
199	0xbe0c4fc6	-0.13702306
200	0x3c97a05b	0.01850908
201	0xbe2e7c86	-0.1703969
202	0xbde576e9	-0.11204321
203	0xbda6369c	-0.08115885
204	0xbdde5851	-0.10856689
205	0xbda77e41	-0.08178378
206	0xbd1697e8	-0.036765963
207	0xbd36032c	-0.04443662
208	0xbacba855	-0.0015537838
209	0x3e857b84	0.26070797
210	0xbd82ff64	-0.06396368
211	0xbe3b5faf	-0.18298219
212	0x3d2cc06f	0.042175706
213	0xbc863485	-0.016382465
214	0x3e087c88	0.13328755
215	0x3db4213a	0.087954
216	0x3daead72	0.08529176
217	0xbda790e8	-0.081819355
218	0xbd9c9772	-0.076460734
219	0x3c62baa1	0.013838441
220	0x3d8e9213	0.06961455
221	0x3e0b882b	0.13626163
222	0xbd07b6d2	-0.033133335
223	0xbddabdb4	-0.10680714
224	0x3c1ebe88	0.009688981
225	0x3d164817	0.036689844
226	0x3d5acef0	0.053420007
227	0x3d0a52bb	0.033770304
228	0xbd5bbe45	-0.053648252
229	0xbcf284b6	-0.029604297
230	0x3c3cd016	0.011524221
231	0xbc35dd46	-0.011100119
232	0x3d12b5de	0.035817973
233	0x3d38ee6b	0.045149248
234	0xbcdf08ea	-0.02722593
235	0x3c6a14b3	0.014287162
236	0x3a8ba760	0.001065474
237	0xbc46d50f	-0.012135758
238	0x3d936e31	0.07198752
239	0x3dbca787	0.09211641
240	0xbd93dedf	-0.07220244
241	0x3dcd6c82	0.10030462
242	0x3dd871d9	0.1056859
243	0xbbf64668	-0.0075157173
244	0x3d0dca72	0.034616895
245	0x3d3b47f5	0.04572292
246	0xbcd50ca9	-0.026007013
247	0xbd2028cb	-0.039101403
248	0x3ceb9878	0.028759226
249	0x3d738e13	0.059461664
250	0x3db4981d	0.08818076
251	0x3d63a7a6	0.055579804
252	0x3d52417a	0.051331975
253	0xbdb5b2a5	-0.08871964
254	0xbc3bd66d	-0.011464697
255	0xbdf53b27	-0.11974173

res2.conv1.bias f4 [8]
0	0x3d9fad31	0.077967055
1	0xb8272e54	-3.985905e-05
2	0xbbf76c32	-0.0075507397
3	0xbd92497b	-0.071429215
4	0xbb4093f9	-0.0029385074
5	0xbdda2d5c	-0.10653183
6	0xbda57feb	-0.08081039
7	0x3cf3fee9	0.029784637

res2.conv2.weight f4 [8, 8, 3, 3]
0	0xbd38f7ec	-0.04515831
1	0xbd86b17e	-0.06576823
2	0xbcf55aa5	-0.02995045
3	0xbd71c13a	-0.059022166
4	0x3b9256b5	0.0044659027
5	0x3d2ec128	0.042664677
6	0x3a40caeb	0.0007354456
7	0xbdcddf54	-0.10052362
8	0x3d14588d	0.03621726
9	0xbde1e820	-0.110306025
10	0xbde0361b	-0.1094782
11	0xbd1859d1	-0.03719503
12	0x3d269d16	0.040677153
13	0xbe3d2d9b	-0.18474428
14	0x3d73dbbb	0.059535723
15	0xbd003490	-0.031300128
16	0xbde63338	-0.11240238
17	0xbd602b4e	-0.0547288
18	0x3df36c67	0.118859105
19	0xbea3ccaf	-0.319921
20	0x3d8de94b	0.06929263
21	0xbe456cec	-0.19279832
22	0xbea5df3a	-0.3239687
23	0x3ddf63c8	0.10907704
24	0x3e774f08	0.24151242
25	0xbcf0d97c	-0.02940058
26	0x3dabd88b	0.08390912
27	0xbde8a75f	-0.113600485
28	0xbd7063c2	-0.058688886
29	0xbdf08c04	-0.11745456
30	0xbd2df28b	-0.042467635
31	0x3da9f4e1	0.0829866
32	0x3d76ee76	0.060286008
33	0x3d8fbc81	0.07018376
34	0x3d22da92	0.039759226
35	0x3d58ecf4	0.05296035
36	0x3d9e4395	0.07727734
37	0x3da84438	0.08216137
38	0x3dc6ed5b	0.09713241
39	0x3d8fe5ae	0.0702623
40	0xbd8a9557	-0.067667656
41	0x3c93a726	0.018024039
42	0xbc29ca21	-0.010363133
43	0xbc838303	-0.016053682
44	0xbcb93bec	-0.02261158
45	0x3e7dcad3	0.24784403
46	0x3ea3ddc8	0.32005143
47	0x3e0646b5	0.1311291
48	0x3e4669d5	0.19376309
49	0xbd64ab28	-0.05582729
50	0x3c0d5490	0.008626118
51	0x3e1c08a4	0.15237671
52	0x3e0e8fa8	0.13921988
53	0x3e35b4bd	0.17744727
54	0xbd690676	-0.056890927
55	0x3d3c1142	0.045914896
56	0xbd50d528	-0.05098453
57	0x3b2ee276	0.0026685274
58	0x3e0580a7	0.13037358
59	0x3db4e756	0.08833186
60	0xbc104bb9	-0.008807116
61	0x3db16758	0.086622894
62	0x3d9b8b69	0.0759495
63	0x3dafe832	0.085892096
64	0x3d50933c	0.050921664
65	0x3deee03b	0.11663862
66	0xbc9a0403	-0.018800741
67	0x3b763332	0.0037567136
68	0x3bd0adde	0.006368383
69	0xbe536332	-0.20643309
70	0xbd18090b	-0.037118
71	0xbdbb6466	-0.09150009
72	0x3cd681df	0.026184974
73	0x3c233bcc	0.009962987
74	0xbe05b875	-0.13058646
75	0x3c89c5bf	0.016817925
76	0x3cdb3898	0.026760384
77	0xbcdb9745	-0.02680553
78	0xbcd684fe	-0.026186462
79	0xbd09a744	-0.033606783
80	0x3d9920ac	0.07476935
81	0xbd0c3a1e	-0.034235112
82	0x3c3b31e8	0.011425473
83	0xbdcf7c58	-0.101311386
84	0x3d22eaf0	0.039774835
85	0xbdad572e	-0.08463894
86	0xbd8c1a4f	-0.068409555
87	0xbc9e03d8	-0.019288942
88	0x3e31e340	0.17371845
89	0x3d9277f9	0.07151789
90	0xbd53bc65	-0.05169334
91	0x3d1ef288	0.038805515
92	0x3d28a7d0	0.041175663
93	0xbd417558	-0.04723105
94	0x3da8f2d2	0.08249439
95	0x3e0d16ea	0.13778272
96	0xbe09c26a	-0.1345307
97	0x3e09a293	0.13440923
98	0xbd841754	-0.06449762
99	0xbcfe33b5	-0.031030515
100	0x3e0c4c0d	0.13700886
101	0xbdbeb22d	-0.09311328
102	0x3d646afe	0.0557661
103	0xbd4461d9	-0.047944877
104	0x3d5ee593	0.054418158
105	0x3c4121bf	0.011787831
106	0xbd88915c	-0.0666835
107	0x3d42e873	0.047584962
108	0xbd42c813	-0.047554087
109	0xbc8946e0	-0.016757429
110	0xbc1e2494	-0.009652276
111	0x3cd88e03	0.026434904
112	0x3cf0bc46	0.02938665
113	0x3dac7dc7	0.084224276
114	0x3cd43507	0.025904192
115	0xbd2eb9ee	-0.042657785
116	0x3d815d7f	0.06316661
117	0xbdb1c088	-0.086793005
118	0xbd1106a0	-0.03540671
119	0xbd7ea3e4	-0.062168017
120	0xbe399dff	-0.18126677
121	0xbe15e2a2	-0.14637235
122	0xbd0d6fee	-0.034530573
123	0x3dca54a3	0.098794244
124	0xbd89f65b	-0.06736442
125	0xbcc19147	-0.023628844
126	0x3e162713	0.14663343
127	0x3ddf0815	0.108902134
128	0x3d5c8d55	0.053845722
129	0xbdc65dd6	-0.096858665
130	0xbda6609d	-0.08123896
131	0x3cdc0882	0.026859526
132	0x3cf4670a	0.02983429
133	0xbd92edab	-0.07174238
134	0x3d5189b1	0.051156703
135	0x3d13a4a1	0.036045674
136	0xbc77fc1e	-0.015135793
137	0x3d9afce8	0.07567769
138	0x3d277706	0.040884994
139	0xbd631cf7	-0.055447545
140	0x3b1d6891	0.0024018625
141	0xbd011ed6	-0.031523548
142	0xbcd6f16e	-0.02623817
143	0xbd7c95fa	-0.061666466
144	0xbdd5de6f	-0.104428165
145	0x3cd7c7ba	0.026340354
146	0xbd486226	-0.048921727
147	0x3df5379f	0.119734995
148	0xbddaa1b3	-0.10675373
149	0x3cc40e3c	0.023932569
150	0xbc85c18d	-0.016327644
151	0xbd993e13	-0.07482543
152	0xbd7ce7f4	-0.061744645
153	0x3c25f764	0.010129783
154	0xbd26b938	-0.040703982
155	0xbda08f4e	-0.07839833
156	0xbe02adf7	-0.12761675
157	0x3d41ba2a	0.04729668
158	0xbd54050f	-0.051762637
159	0xbd8d5e32	-0.06902732
160	0xbd0bfb43	-0.03417517
161	0x3e172c73	0.1476305
162	0xbc247d3e	-0.010039626
163	0xbb022452	-0.0019858074
164	0x39639567	0.00021704064
165	0x3cb8367f	0.022486923
166	0xbc3bc31b	-0.011460091
167	0x3e7cacd7	0.24675308
168	0x3db18161	0.08667255
169	0x3e5fdf15	0.21862443
170	0x3cfb9523	0.030710762
171	0x3d8f791d	0.070055224
172	0xbd52f444	-0.05150248
173	0x3cc41e21	0.023940148
174	0xbda878af	-0.082261436
175	0x3dae1adb	0.08501216
176	0xbddf3963	-0.108996175
177	0x3ddd6985	0.10811142
178	0x3ddb867c	0.1071901
179	0xbd888e65	-0.066677846
180	0x3ce7b76a	0.0282857
181	0xbcac6f3a	-0.02104913
182	0xbbbb249a	-0.0057111504
183	0x3b7a091e	0.0038152407
184	0x3b80e335	0.003933335
185	0x3d9c5c8b	0.07634839
186	0x3dbd9dce	0.092586145
187	0xbde49ee6	-0.1116312
188	0x3d6a32cd	0.057177354
189	0x3d9cf978	0.0766477
190	0x3c0bdc04	0.0085363425
191	0x3d1a01f7	0.03759953
192	0xbe6d8d69	-0.23198475
193	0xbec8e4d5	-0.39237085
194	0xbe681ffb	-0.2266845
195	0xbd34e75d	-0.044165958
196	0xbe2a5d03	-0.16637044
197	0x3ba8e20c	0.0051539
198	0xbd089b79	-0.033351395
199	0xbd6330be	-0.055466406
200	0x3c6ba266	0.0143819805
201	0x3d39e237	0.04538175
202	0xbd0cce6c	-0.034376547
203	0x3d6eb062	0.05827368
204	0xbd033ab6	-0.032038413
205	0x3de8821f	0.11352944
206	0xbdc6a460	-0.09699321
207	0xbd06ce31	-0.032911483
208	0xbe3258ea	-0.1741673
209	0xbdf7bc27	-0.12096434
210	0x3dee57e3	0.11637857
211	0x3e3e9d2d	0.18614645
212	0x3bfa0b3a	0.007630733
213	0x3d1ee34c	0.038790986
214	0x3dd48dd9	0.10378618
215	0x3d0967fc	0.033546433
216	0xbd80a779	-0.06281943
217	0xbdc60560	-0.09668994
218	0xbb4dee94	-0.0031422721
219	0xbddb59cb	-0.10710486
220	0xbcaeb3a4	-0.021325894
221	0x3cdf2973	0.027241444
222	0x3c958b7b	0.018254986
223	0xbe0a1681	-0.13485147
224	0x3cd49794	0.025951184
225	0xbc45eac1	-0.0120798955
226	0x3bd274db	0.0064226217
227	0x3e26a3c4	0.16273409
228	0x3d085059	0.03327975
229	0x3d7724ad	0.06033771
230	0xbb844860	-0.004036948
231	0xbdd7ae07	-0.1053124
232	0xbdf86793	-0.1212913
233	0xbd3bd43b	-0.045856696
234	0xbc6b7dbe	-0.014373241
235	0xbd90847d	-0.0705652
236	0xbda9952f	-0.08280408
237	0xbe369a7d	-0.1783237
238	0xbf025ec0	-0.5092583
239	0x3d83bd36	0.064325735
240	0xbe087631	-0.13326336
241	0xbf4afb70	-0.79289913
242	0x3e8be5df	0.27323815
243	0xbd98c2a5	-0.074590005
244	0xbde5b49a	-0.11216088
245	0xbdd46514	-0.103708416
246	0x3d861a52	0.06547989
247	0x3e190289	0.14942373
248	0x3cdcec01	0.026968004
249	0x3d8b58a4	0.06804016
250	0x3c5b0e64	0.01337013
251	0x3cbbc40c	0.02292063
252	0x3d9424da	0.072335914
253	0xbdc1480e	-0.094375715
254	0xbcd34e36	-0.02579413
255	0x3d858c0c	0.065208524

res2.conv2.bias f4 [8]
0	0x3d865b2a	0.06560357
1	0x3a05337f	0.0005081221
2	0xbd5d6702	-0.054053314
3	0x3d3f17e7	0.046653654
4	0x3d9c3681	0.07627583
5	0xbceb4338	-0.028718576
6	0x3d16e0af	0.03683537
7	0x3de079ae	0.109607086

res3.conv1.weight f4 [8, 8, 3, 3]
0	0xbdab7655	-0.083721794
1	0xbdb6c120	-0.089235544
2	0x3d3ffa2b	0.04686944
3	0x3d4acbd6	0.0495108
4	0xbd4af1f4	-0.04954715
5	0xb9608408	-0.0002141149
6	0xbc9cdcf5	-0.01914833
7	0xbde3713b	-0.111055814
8	0xbd4b765c	-0.049673423
9	0xbdba6eef	-0.0910319
10	0xbd94acf6	-0.07259552
11	0xbbb4d1f9	-0.0055181948
12	0xbd4f2a02	-0.05057717
13	0xbdb23c31	-0.08702887
14	0x3df9a7c3	0.12190201
15	0xbbc4d3f2	-0.006006711
16	0x3ce9b7d0	0.028530031
17	0x3d257efd	0.04040431
18	0xbd7e84f0	-0.062138498
19	0x3cf2edb4	0.029654361
20	0xbd65f19a	-0.056138612
21	0x3ddcb4eb	0.10776695
22	0x3dacef1c	0.08444044
23	0x3d2869c0	0.041116476
24	0xbd428375	-0.04748865
25	0xbba5a554	-0.005055109
26	0xbd4e03bf	-0.05029654
27	0x3d581e49	0.052763257
28	0xbd8246cd	-0.063611604
29	0xbcef7b4b	-0.029233595
30	0xbd57193c	-0.0525143
31	0xbd26530f	-0.040606555
32	0x3cf89de5	0.030348727
33	0x3cc3dc85	0.023908863
34	0x3da622cc	0.08112106
35	0xbcec2d41	-0.028830172
36	0xbd822643	-0.06354954
37	0xbc3e1d35	-0.011603643
38	0x3d58aa87	0.052897003
39	0xbd0c24ec	-0.0342149
40	0x3d8521de	0.065006
41	0x3dbca713	0.092115544
42	0xba0552a4	-0.0005085862
43	0xbc0caf4d	-0.008586717
44	0x3d42d75f	0.047568675
45	0x3d8bb9a5	0.06822518
46	0x3d4f0220	0.050539136
47	0x3d43bf1f	0.04778969
48	0xbcf51de4	-0.02992148
49	0xbdb6f195	-0.08932797
50	0xbdb8e243	-0.09027531
51	0xbd84073b	-0.064466916
52	0xbd5bb42c	-0.053638622
53	0xbcec926f	-0.028878419
54	0x3dde3360	0.10849643
55	0xbdaacfe5	-0.08340434
56	0x3dda0ba2	0.1064675
57	0x3ca1a05d	0.019729787
58	0x3d188a8b	0.0372415
59	0x3d4c8565	0.049931902
60	0x3dfdc901	0.12391854
61	0x3cda1404	0.026620872
62	0x3cdfa6b6	0.027301174
63	0xbe30a986	-0.17252168
64	0x3d838987	0.06422716
65	0x3d97c04a	0.07409723
66	0xbdd4e277	-0.10394757
67	0xbdd6c4b7	-0.10486739
68	0x3d88406e	0.06652914
69	0xbd2f5a4a	-0.042810716
70	0x3c9392a8	0.018014267
71	0x3cb5d36a	0.022195537
72	0xbd940c99	-0.07228965
73	0xbe393df1	-0.18090035
74	0x3d13e4db	0.036106925
75	0x3c84cef8	0.016211972
76	0xbd8c257a	-0.068430856
77	0x3d9577a1	0.07298208
78	0x3d220a00	0.039560318
79	0xbca714cd	-0.02039566
80	0xbd834f70	-0.06411636
81	0xbd5a62d5	-0.05331691
82	0xbd173798	-0.036918253
83	0xbdad70a5	-0.08468751
84	0x3c7bd344	0.015370194
85	0x3e131d6c	0.14366692
86	0xbded6e0e	-0.11593257
87	0x3d9b6ab9	0.07588715
88	0xbd29bdd0	-0.041440785
89	0xbd37072d	-0.044684578
90	0x3d760144	0.0600598
91	0x3d5275f5	0.051382024
92	0xbd3ff6ad	-0.046866108
93	0x3e090adb	0.13383047
94	0x3d52af5d	0.05143677
95	0x3cc953f9	0.024576174
96	0xbbda3845	-0.00665954
97	0xbbe6f8ee	-0.0070487177
98	0xbd934069	-0.0719002
99	0xbd35a1c5	-0.04434373
100	0x3e025295	0.12726815
101	0x3e1bc90e	0.15213415
102	0x3dab3997	0.08360594
103	0x3b204664	0.0024456019
104	0x3e4c5815	0.19955476
105	0xbdbb61f9	-0.09149546
106	0x3cc87322	0.024468962
107	0x3d449110	0.047989905
108	0x3dab3917	0.083604984
109	0x3dcbc2ef	0.0994929
110	0x3d097c69	0.033565912
111	0x3da166e8	0.07880956
112	0xbd8e45fb	-0.069469415
113	0xbd8b0ad6	-0.06789176
114	0x3c0ca79c	0.008584883
115	0xbd837369	-0.06418497
116	0xbdc7fe67	-0.0976532
117	0xbc1b2298	-0.009468697
118	0xbd9e40db	-0.07727214
119	0xbc322e0d	-0.010875237
120	0x3c3cf0d6	0.011532029
121	0xbd878140	-0.06616449
122	0xbc9d9759	-0.019237207
123	0x3da8a7f4	0.082351595
124	0xbd35a54a	-0.044347085
125	0x3e04f322	0.12983373
126	0xbd507b4c	-0.050898835
127	0x3d49bdee	0.049253397
128	0x3dced340	0.100988865
129	0xbd3a7f8a	-0.045531787
130	0x3df27421	0.11838556
131	0xbbe12dfe	-0.006871938
132	0xbd0e405e	-0.034729354
133	0x3d745567	0.05965176
134	0xbc996b48	-0.018727913
135	0x3e1b6412	0.15174893
136	0xbde17dee	-0.11010347
137	0x3bd4917c	0.0064870697
138	0xbc5bdc77	-0.013419262
139	0xbe8dbfcf	-0.276854
140	0xbdc45ded	-0.095882274
141	0x3c2bb560	0.010480255
142	0xbe86a0ef	-0.26294658
143	0xbe7a9427	-0.24470578
144	0xbd7d2fa1	-0.061813
145	0xbdb3ca2d	-0.08778796
146	0xbd8178db	-0.063218795
147	0x3dc44b64	0.09584692
148	0x39c7f31e	0.00038137374
149	0xbd4efb88	-0.050532848
150	0x3e4f045b	0.20216505
151	0x3dfddfcd	0.12396202
152	0x3dc89957	0.09794872
153	0xbdda06aa	-0.10645802
154	0x3d899635	0.06718103
155	0x3dec0ad9	0.115255065
156	0xbd29e9b2	-0.041482635
157	0xbd3fbe29	-0.04681221
158	0x3db5927a	0.08865829
159	0xbaa47f24	-0.0012550098
160	0xbd496a36	-0.049173556
161	0xbd1fbef9	-0.039000485
162	0xbda54430	-0.08069646
163	0x3d6df10b	0.058091205
164	0x3d1e2077	0.03860518
165	0xbd7c4140	-0.061585665
166	0x3e2cd17f	0.16876791
167	0x3da808ea	0.08204825
168	0x3d5a74b4	0.053333953
169	0x3bc54e71	0.006021314
170	0xbdbe6fa3	-0.09298637
171	0xbc76dd15	-0.0150673585
172	0xbd2f9684	-0.042868152
173	0xbda5333e	-0.08066414
174	0xbc86b438	-0.016443357
175	0x3e516e23	0.2045217
176	0x3d78d163	0.06074656
177	0xbe2e676b	-0.17031638
178	0xbe3e7e04	-0.18602759
179	0xbde8048d	-0.11328993
180	0x3da3196d	0.07963834
181	0x3d4469a3	0.047952306
182	0xbd2c034a	-0.041995324
183	0x3d7bac9f	0.06144392
184	0x3d761742	0.060080774
185	0x3da8e940	0.08247614
186	0xbe193dbe	-0.14964959
187	0xbd774a2b	-0.060373466
188	0xbde82c3f	-0.11336564
189	0xbd85a6d7	-0.06525963
190	0x3dcbc1e5	0.09949092
191	0x3b50c933	0.0031858205
192	0x3df256d7	0.1183297
193	0xbd44f05c	-0.048080787
194	0xbd81e6a5	-0.0634282
195	0x3bd8fefb	0.006622193
196	0xbe82e628	-0.2556622
197	0xbe34f631	-0.1767204
198	0x3d3d10c5	0.04615857
199	0x3db8f358	0.09030789
200	0x3dc8b02c	0.09799227
201	0x3d1cf42f	0.03831881
202	0xbd20c5b4	-0.039251044
203	0x3dcf2dd3	0.10116162
204	0x3caa0016	0.020751994
205	0x3d0c43aa	0.034244217
206	0xbbb32c4a	-0.005467926
207	0x3c451feb	0.012031536
208	0x3dbb7116	0.09152429
209	0x3c1e1828	0.009649314
210	0xbe556ec6	-0.20843038
211	0xbe7d48f5	-0.24734862
212	0xbe36325e	-0.17792651
213	0x3b95181d	0.0045499937
214	0xbe8771fc	-0.2645415
215	0xbe4636f7	-0.19356905
216	0xbda8f9ed	-0.082507946
217	0xbd048cbe	-0.032360785
218	0x3dd9ac41	0.10628558
219	0xbe069ba1	-0.13145305
220	0x3d9ab548	0.07554108
221	0xbdf6ec66	-0.12056808
222	0xbd4b29e2	-0.04960049
223	0xbd563b73	-0.05230279
224	0x3b8a4338	0.004219439
225	0x3cd442d6	0.025910776
226	0x3dd7ad42	0.10531093
227	0xbcc6f264	-0.024285503
228	0xbd4d5589	-0.0501304
229	0x3d0e21f8	0.034700364
230	0xbd891a0b	-0.066944204
231	0xbd81a6a8	-0.06330615
232	0x3dd3b968	0.10338098
233	0xbb214222	-0.0024606069
234	0x3d3abcf7	0.045590367
235	0x3ce753d0	0.028238207
236	0xbcc7c892	-0.024387632
237	0x3cde67e5	0.02714915
238	0xbd1d3a9e	-0.03838598
239	0xbdb8a1a7	-0.09015208
240	0x3c30a046	0.0107804
241	0xbd1932e4	-0.03740205
242	0x3e0b237f	0.1358776
243	0xbda0d1df	-0.0785253
244	0xbd2fc4b8	-0.042912215
245	0x3d390ffc	0.04518126
246	0xbde4c164	-0.11169699
247	0xbd349bc8	-0.044093877
248	0x3d83e3b4	0.06439915
249	0x3dba9541	0.09110499
250	0x3d9a21d1	0.07525981
251	0x3d9190fc	0.07107732
252	0xbd724ff8	-0.059158295
253	0x3d2d3d5a	0.042294838
254	0xbdacd7b5	-0.0843958
255	0xbdb0206f	-0.08599936

res3.conv1.bias f4 [8]
0	0x3d4ef3d6	0.05052551
1	0xbdb9466a	-0.090466335
2	0x3cf009d6	0.029301565
3	0x3d27faa5	0.041010518
4	0xbd7b5f9a	-0.06137047
5	0xbcc162f2	-0.023606751
6	0x3d06dd72	0.03292603
7	0xbe10d3b7	-0.14143263

res3.conv2.weight f4 [8, 8, 3, 3]
0	0xbce52d5a	-0.027975727
1	0xbdd8168f	-0.10551178
2	0x3d219751	0.039450947
3	0x3d87d5a5	0.06632546
4	0x3c33322c	0.010937255
5	0xbcd44d54	-0.02591578
6	0x3d4fd724	0.050742283
7	0xbd5bdd89	-0.05367807
8	0xbc0cc9f1	-0.008593068
9	0x3dbcf825	0.09227017
10	0xbe272a59	-0.16324748
11	0x3e644a7e	0.22294042
12	0x3d69768c	0.05699782
13	0xbdd074d4	-0.10178533
14	0x3e544d95	0.2073272
15	0xbd8ce677	-0.06879895
16	0xbd91239d	-0.07086871
17	0xbc3e3055	-0.011608203
18	0x3f21004e	0.6289109
19	0x3e1b7775	0.15182288
20	0x3f0856bc	0.53257346
21	0xbcc09981	-0.023510696
22	0xbe25afe9	-0.16180386
23	0xbe4388ae	-0.19095108
24	0x3e711956	0.23544821
25	0x3d4160a5	0.047211308
26	0xbd141d26	-0.03616061
27	0x3e0ee7e6	0.1395565
28	0x3d4d6c60	0.050152183
29	0x3d5df0cb	0.054184716
30	0x3dd6f059	0.104950614
31	0xbe7e24b8	-0.24818695
32	0xbdccd411	-0.10001386
33	0x3d085d74	0.03329225
34	0x3902846e	0.000124471
35	0xbdad0cea	-0.08449729
36	0xbb994d92	-0.0046784366
37	0x3e15acd7	0.14616714
38	0x3d225e98	0.039640993
39	0x3e0aaec7	0.13543235
40	0x3d9bf2d0	0.07614672
41	0x3d5a92a7	0.053362515
42	0xbcc64f77	-0.024207814
43	0xbd2d2091	-0.042267386
44	0xbdbc52c9	-0.091954775
45	0xbd218f38	-0.039443225
46	0xbc0ad1b4	-0.008472849
47	0x3daf5e92	0.0856296
48	0xbc7bda5a	-0.015371883
49	0x3d912692	0.07087435
50	0x3e1455dd	0.14485879
51	0xbd902b9a	-0.07039566
52	0x3de5deb7	0.1122412
53	0xbd9d20ed	-0.07672296
54	0x3dd91292	0.10599245
55	0x3d11927a	0.03554008
56	0xbdad99b6	-0.08476584
57	0xbda0fcf0	-0.07860744
58	0xbe0f3788	-0.13986027
59	0xbf229188	-0.63503313
60	0x3e268a62	0.16263726
61	0x3e914f9f	0.2838106
62	0xbecc570e	-0.39910167
63	0x3e46295a	0.19351712
64	0x3d861432	0.06546821
65	0xbdf4fb38	-0.11961979
66	0x3ceba101	0.028763296
67	0x3e2153fb	0.15754692
68	0xbe8d0eb1	-0.2755027
69	0xbe7455df	-0.23860882
70	0x3c6c3b64	0.014418457
71	0xbfca7b8e	-1.5818956
72	0x3d630495	0.05542429
73	0xbde8919d	-0.113558985
74	0x3dc77ff5	0.09741203
75	0x3d8e5571	0.069498904
76	0xbcaa522a	-0.020791132
77	0xbdd2f2d4	-0.10300222
78	0x3d12e3de	0.035861842
79	0x3da53837	0.08067363
80	0xbde77b6f	-0.1130284
81	0xbc03004b	-0.007995675
82	0x3caa7742	0.02080882
83	0x3e14b331	0.14521481
84	0x3c3c2cf6	0.011485329
85	0xbdfc98df	-0.12333845
86	0xbd7ea120	-0.06216538
87	0xbd2ffcf2	-0.042965837
88	0x3bf801b9	0.0075685647
89	0x3cd231f2	0.025658581
90	0x3cc5d5c4	0.024149783
91	0x3da45fa0	0.080260515
92	0x3df48fe0	0.119415045
93	0x3d7932f9	0.060839627
94	0x3dc09a3d	0.094044186
95	0x39d5e6a9	0.0004079838
96	0xbcee8d95	-0.029120246
97	0x3d8ee9a7	0.069781594
98	0x3ca910a8	0.020637825
99	0xbd8e77a4	-0.069564134
100	0x3d31a374	0.04336877
101	0xbd160766	-0.03662815
102	0x3d34664b	0.044042867
103	0x3d4ec9d6	0.050485454
104	0x3d982bdd	0.07430241
105	0xbdb4f794	-0.08836284
106	0x3c82d54d	0.01597085
107	0x3d53a84d	0.051674176
108	0x3be39b70	0.00694602
109	0xbdcc8cfa	-0.09987827
110	0x3c8eff79	0.017455803
111	0x3e2b1387	0.16706668
112	0x3d5ba124	0.053620473
113	0x3cb3bc25	0.0219403
114	0x3d45e175	0.048310716
115	0xbb0528a9	-0.0020318425
116	0xbda66b79	-0.081259675
117	0x3df9ba20	0.12193704
118	0xbd262df4	-0.040571168
119	0x3d7ef725	0.062247414
120	0x3c27bede	0.010238377
121	0xbd9081a6	-0.070559785
122	0x3dfd4c57	0.12368076
123	0x3d07c081	0.03314257
124	0xbdb2478f	-0.08705055
125	0xbdc0354f	-0.09385168
126	0x3b9214e2	0.004458056
127	0xbc5f969e	-0.01364675
128	0xbd04a582	-0.032384403
129	0x3d375d2b	0.044766586
130	0xbd2ee0eb	-0.042694967
131	0x3d1d021e	0.038332097
132	0xbe356579	-0.1771449
133	0xbe35bf3f	-0.17748736
134	0xbe27f38f	-0.16401504
135	0x3d2b66ff	0.04184627
136	0x3cf56e7d	0.029959911
137	0xbd525a07	-0.051355388
138	0xbb9a8161	-0.00471513
139	0x3e823a15	0.25434938
140	0xbe41a101	-0.18909074
141	0x3d5993e0	0.05311954
142	0xbd477cc8	-0.048702985
143	0xbe5ec600	-0.21755219
144	0xbdef1128	-0.11673194
145	0x3d418b3a	0.047251917
146	0xbc24a913	-0.010050076
147	0x3d339543	0.04384352
148	0x3d1adf83	0.037810814
149	0x3dc966a2	0.09834029
150	0xbc92ddd1	-0.017928036
151	0x3d196a7d	0.03745507
152	0xbd0cceae	-0.034376793
153	0x3c3e63a6	0.011620438
154	0x3dc9fbc5	0.09862474
155	0x3dac4a5c	0.084126204
156	0xbe8248df	-0.2544622
157	0xbaf25dc9	-0.0018491085
158	0xbcc3711b	-0.023857644
159	0xbdb30be9	-0.08742506
160	0x3a112f53	0.0005538363
161	0x3debbbb2	0.115104094
162	0xba328dbf	-0.0006811283
163	0x3d83e8f6	0.06440918
164	0x3e47c1ed	0.1950757
165	0x3dad49a8	0.084613144
166	0xbd1335e7	-0.035940077
167	0xbdf24379	-0.11829276
168	0xbd93a94a	-0.07210024
169	0xbd37eca1	-0.0449034
170	0x3c8e20ae	0.017349567
171	0x3d57103d	0.05250572
172	0x3d0980b2	0.03357
173	0x3c2e4a4f	0.010637834
174	0x3ca7e0c6	0.020492923
175	0x3d48192b	0.048852127
176	0x3dbe57da	0.092941
177	0x3c6d2643	0.014474454
178	0xbca90885	-0.020633945
179	0xbcd53f8f	-0.026031284
180	0x3cb5e004	0.022201546
181	0xbda1971d	-0.07890151
182	0xbba0c144	-0.0049058516
183	0x3dfe7a8c	0.12425718
184	0xbe33c098	-0.17553937
185	0xbd782ba6	-0.0605885
186	0xbd1d360d	-0.038381625
187	0xbd31440e	-0.043277793
188	0xbd19dbe7	-0.03756323
189	0x3d6d1814	0.05788429
190	0xbda37cad	-0.079827644
191	0x3dd79306	0.10526089
192	0x3d999b2c	0.075003
193	0x3ccbdebe	0.024886485
194	0xbda39349	-0.07987077
195	0x3d0c0123	0.03418077
196	0xbd7b3247	-0.061327245
197	0xbc177bb5	-0.009245803
198	0x3d6eddda	0.058317043
199	0xbc803ace	-0.01565304
200	0xbdee1c98	-0.116265476
201	0xbe075d60	-0.13219213
202	0x3d9e3951	0.07725776
203	0xbe816792	-0.2527433
204	0x3e5222e9	0.2052113
205	0x3c7950d1	0.015217022
206	0xbe61924d	-0.22028466
207	0xbd837cb5	-0.0642027
208	0xbc515ef3	-0.012778985
209	0x3ddf647a	0.10907836
210	0xbd75942f	-0.059955772
211	0xbc149b9e	-0.009070305
212	0xbe6b5c24	-0.22984368
213	0xbbe70a11	-0.0070507606
214	0xbe3beef4	-0.18352872
215	0xbfb4c9bd	-1.4124066
216	0xbbfb7553	-0.0076738982
217	0x3d8e2c9e	0.06942104
218	0xbc6dcf99	-0.014514827
219	0xbbe1b187	-0.006887618
220	0x3d895855	0.06706301
221	0xbca5f709	-0.020259397
222	0x3d018925	0.03162493
223	0xbd6d39f0	-0.05791658
224	0xbd74cf0f	-0.05976778
225	0x3c894273	0.016755318
226	0x3b93e5a5	0.0045134597
227	0x3cfac19f	0.030609904
228	0x3e16a41b	0.14711039
229	0x3d9615fd	0.07328413
230	0xbdf63ee7	-0.120237164
231	0xbd81d90c	-0.063402265
232	0xbda725e5	-0.08161525
233	0xbe2bff6d	-0.16796656
234	0x3d122769	0.035682116
235	0x3df23845	0.11827139
236	0x3e278772	0.16360262
237	0xbd540097	-0.051758375
238	0x3d23e6c5	0.040015
239	0xbe0cca8e	-0.13749143
240	0xbd5ae5c0	-0.053441763
241	0xbd5c31bd	-0.05375837
242	0x3d5c2eb8	0.053755492
243	0x3d021ecd	0.031767655
244	0x3e155068	0.14581454
245	0xbc05e705	-0.008172755
246	0xbdcba2ca	-0.09943159
247	0x3ca0005a	0.019531418
248	0xbe88b39c	-0.2669953
249	0xbd8febc0	-0.070273876
250	0xbdff8366	-0.12476234
251	0xbe04b408	-0.12959301
252	0xbddbf11a	-0.10739346
253	0xbd29d060	-0.041458488
254	0x3c81e806	0.015857708
255	0x3dcf0333	0.10108032

res3.conv2.bias f4 [8]
0	0x3c49da91	0.012320177
1	0xbd2a2878	-0.0415425
2	0xbcebe8b5	-0.028797487
3	0x3daa37de	0.08311437
4	0x3d40c037	0.04705831
5	0x3d89653f	0.06708764
6	0x3ce348fd	0.027744764
7	0x3dfd09b2	0.12355365
