Checkpoints/model.pth (torch, 44905 bytes, 24 tensors)

conv1.weight f4 [8, 3, 3, 3]
0	0xbd374f2d	-0.044753242
1	0x3e077d71	0.13231446
2	0xbba647fa	-0.0050744982
3	0xbe3caa0e	-0.18424246
4	0xbd981bc0	-0.07427168
5	0xbdb0aeae	-0.086270675
6	0x3d441a94	0.04787691
7	0xbe11b7a6	-0.14230213
8	0x3e03dd26	0.1287733
9	0x3d96ce1b	0.0736353
10	0x3dd8b9f4	0.10582343
11	0xbe409f44	-0.18810755
12	0xbd46d1ca	-0.048539914
13	0xbdd573d0	-0.1042248
14	0xbe11d4e0	-0.14241362
15	0xbe43bf8e	-0.19116041
16	0x3dff02cb	0.124517046
17	0x3e0e9a56	0.13926062
18	0x3e019cca	0.12657467
19	0xbe3f6740	-0.1869173
20	0xbe359b29	-0.1773497
21	0xbde5c439	-0.11219067
22	0x3b56ff9e	0.0032806168
23	0xbe46b0de	-0.19403407
24	0xbe0834d5	-0.13301404
25	0x3dd9d704	0.10636714
26	0xbe145db9	-0.14488877
27	0xbc1ae1dc	-0.009453263
28	0xbdc3d0f5	-0.0956134
29	0xbd9f1991	-0.07768548
30	0x3d97eba0	0.07417989
31	0x3e4c3c41	0.1994486
32	0x3cb41406	0.021982204
33	0xbce0d76d	-0.027446473
34	0x3d449560	0.047994018
35	0xbe06a91e	-0.1315045
36	0x3d67867d	0.056524742
37	0x3d8ad79d	0.06779406
38	0xbd3004f8	-0.04297349
39	0xbde038be	-0.10948323
40	0x3ea050dc	0.3131169
41	0x3e110277	0.14161097
42	0x3dcfcc9f	0.1014645
43	0x3e022cbd	0.12712379
44	0x3d4a0ccb	0.049328607
45	0xbe0ee72d	-0.13955374
46	0xbc65d9f7	-0.014029018
47	0xbdd59a75	-0.10429851
48	0x3e33011e	0.17480895
49	0xbd9d619b	-0.076846324
50	0x3d4ebfa2	0.050475724
51	0x3e086216	0.13318667
52	0xbdd5de5a	-0.10442801
53	0x3d2a83f1	0.041629735
54	0x3e2c06e0	0.16799498
55	0x3c5f95f9	0.013646596
56	0xbd7e080e	-0.0620194
57	0x3e476cde	0.19475123
58	0x3e9385c1	0.28812984
59	0xbcf423d8	-0.029802248
60	0xbd9beca1	-0.07613493
61	0x3da8fdc7	0.08251529
62	0xbd38788f	-0.04503685
63	0x3db22932	0.08699264
64	0x3e1afdb1	0.15135838
65	0x3d18bc93	0.037289213
66	0xbae757e3	-0.0017650094
67	0x3e2451f8	0.16046894
68	0x3d32e546	0.043675683
69	0xbd613028	-0.054977566
70	0xbe017e79	-0.12645902
71	0xbde484fb	-0.111581765
72	0xbe4a6fce	-0.19769213
73	0x3e0e18db	0.13876669
74	0xbe3df065	-0.18548734
75	0xbe307f32	-0.17236021
76	0x3e54a3ad	0.20765562
77	0xbd253396	-0.0403324
78	0x3b135c13	0.00224853
79	0xbdf4a6c7	-0.11945873
80	0x3e1b4ae1	0.15165283
81	0xbdb68db1	-0.08913744
82	0xbcbe5a73	-0.023236489
83	0xbdca5e1b	-0.098812304
84	0x3d81ee4d	0.063442804
85	0x3d40f427	0.04710784
86	0x3e17b306	0.14814386
87	0xbd84318a	-0.06454761
88	0xbe0f8d14	-0.14018661
89	0xbe08499a	-0.13309327
90	0x3d81e4b6	0.06342451
91	0x3d892caa	0.06697972
92	0x3e098de7	0.13433038
93	0x3e54d575	0.20784552
94	0xbd6e325e	-0.058153503
95	0xbdd9312e	-0.106050834
96	0x3c3d94bd	0.0115711065
97	0x3c4361cb	0.011925171
98	0xbd75f587	-0.060048606
99	0xbdf520c4	-0.1196914
100	0x3d05310e	0.032517485
101	0x3e269a5b	0.1626982
102	0x3e1c09d7	0.15238129
103	0x3c45e963	0.0120795695
104	0x3dba4084	0.09094337
105	0xbd9c3aae	-0.0762838
106	0x3e321096	0.1738914
107	0xbdf26cdd	-0.1183717
108	0x3e6b1b75	0.22959693
109	0xbd19015f	-0.037354823
110	0xbd05bd14	-0.032651022
111	0x3d56a2c1	0.052401308
112	0x3e86dd5c	0.2634076
113	0xbd110e9e	-0.03541433
114	0x3e37cb89	0.17948736
115	0xbacbcc67	-0.0015548588
116	0xbd5a9ade	-0.05337035
117	0x3d0ef95a	0.03490577
118	0xbdb484b3	-0.08814373
119	0x3dcd0255	0.100102104
120	0xbe1a3edf	-0.15063046
121	0x3df2cd12	0.1185552
122	0xbe3060fa	-0.17224494
123	0xbd713b9e	-0.058894746
124	0x3df46803	0.11933901
125	0xbccb7001	-0.024833681
126	0xbd95d647	-0.07316261
127	0xbe5c7e54	-0.21532565
128	0xbdc93115	-0.09823815
129	0xbe064fd3	-0.13116388
130	0x3e617a93	0.22019415
131	0x3e4dc1af	0.20093416
132	0x3e1af628	0.15132964
133	0x3dedcce4	0.116113454
134	0x3c5a4228	0.013321437
135	0x3c7428ad	0.014902276
136	0xbdd56898	-0.1042034
137	0xbdc3e2a6	-0.09564714
138	0x3c37a491	0.011208669
139	0xbd6bda7a	-0.057581402
140	0x3cead3dc	0.028665476
141	0x3ddebab2	0.10875453
142	0x3e4fba5f	0.20285939
143	0x3dc0c1e9	0.094119854
144	0x3e03a47b	0.12855713
145	0x3e7e4219	0.24829902
146	0xbd8be11f	-0.06830048
147	0xbe203afa	-0.15647498
148	0xbd587936	-0.05284997
149	0xbc7a1626	-0.01526407
150	0x3caa5a54	0.020795025
151	0x3dc1907e	0.09451388
152	0x3cfe2eb9	0.031028138
153	0xbde48f95	-0.111601986
154	0x3e28b566	0.16475448
155	0x3db27f8c	0.08715734
156	0x3e303f9c	0.17211765
157	0x3e9182a5	0.28419986
158	0x3e3dcada	0.18534413
159	0xbe1270de	-0.14300868
160	0x3e30132a	0.1719481
161	0xbe02a1b0	-0.12756991
162	0x3d886417	0.066597156
163	0x3d493767	0.0491251
164	0xbd882aab	-0.06648763
165	0x3d2e818f	0.042604025
166	0x3e7ba3e8	0.24574244
167	0xbe362d45	-0.17790706
168	0x3c2dff35	0.010619928
169	0x3e43285c	0.19058365
170	0x3e2bc92c	0.1677596
171	0xbcd2a5c6	-0.025713813
172	0x3dbf635b	0.093451224
173	0xbdb4acbb	-0.08822008
174	0x3d1eb9ec	0.038751528
175	0xbcf5e4de	-0.030016359
176	0xbdfffec7	-0.12499767
177	0x3e39b18e	0.18134138
178	0x3e49a9de	0.19693705
179	0x3e4a38a2	0.19748166
180	0xbb000da8	-0.001953939
181	0x3e0c0855	0.13675053
182	0x3c406777	0.011743418
183	0x3dbccb5e	0.09218477
184	0x3e68d71f	0.22738312
185	0xbdfa9fdd	-0.12237523
186	0xbdcf8ee9	-0.1013468
187	0x3da5111f	0.08059906
188	0xbd93090f	-0.07179462
189	0x3c8f15b0	0.017466396
190	0x3d947fe7	0.07250958
191	0xbdf337b3	-0.11875858
192	0x3e01a9f5	0.1266249
193	0x3dcd39cf	0.10020792
194	0xbd525fef	-0.05136102
195	0xbe601d94	-0.21886283
196	0xbe846339	-0.2585695
197	0xbe55fde8	-0.20897639
198	0x3bf60753	0.0075081973
199	0x3cd8dbf8	0.026472077
200	0x3cf21463	0.029550737
201	0xbd9c6dad	-0.076381065
202	0xbd9c1fa9	-0.07623226
203	0xbd2881e9	-0.041139517
204	0xbea22b06	-0.3167345
205	0xbe8dfc9b	-0.27731785
206	0xbca212c6	-0.019784342
207	0xbe29c0f5	-0.16577514
208	0xbda42e8c	-0.080166906
209	0xbbf7d909	-0.0075637144
210	0xbdbc9dfb	-0.0920982
211	0xbd9eef84	-0.07760528
212	0xbd78ac38	-0.060711116
213	0xbe7c3133	-0.24628143
214	0xbdac023c	-0.08398864
215	0xbdfa16f4	-0.12211409

conv1.bias f4 [8]
0	0xbe336fb4	-0.1752308
1	0x3d2a6086	0.04159596
2	0x3e1ff00d	0.15618916
3	0x3e5177c5	0.20455845
4	0x3d5aad8f	0.053388175
5	0xbce76413	-0.028245961
6	0xbcfe438b	-0.031038066
7	0x3d369ef9	0.044585202

res1.conv1.weight f4 [8, 8, 3, 3]
0	0xbd4b78ad	-0.049675632
1	0xbe0e3740	-0.13888264
2	0xbc94a98f	-0.018147258
3	0xbe04975b	-0.12948363
4	0xbdeb2a8e	-0.11482726
5	0xbd9eb4b6	-0.077493116
6	0x3b85157c	0.004061399
7	0xbdc4fbf5	-0.096183695
8	0x3dac0818	0.08399981
9	0xbcc045a8	-0.023470715
10	0xbbac825e	-0.0052645644
11	0x3d999de4	0.07500818
12	0xbdfc9353	-0.12332787
13	0xbda51bc7	-0.08061939
14	0xbdcdef9b	-0.10055467
15	0xbced14b1	-0.02894053
16	0xbd01c869	-0.031685267
17	0xbd8a6d4d	-0.06759129
18	0xbd3714d1	-0.044697586
19	0x3d7b3924	0.06133379
20	0x3d410e2c	0.047132656
21	0x3d93f4ab	0.07224401
22	0xbd87b3cf	-0.06626093
23	0x3aca9788	0.0015456537
24	0x3d9f933b	0.07791754
25	0xbdc231cd	-0.09482155
26	0xbd27d368	-0.040973097
27	0xbc873512	-0.016504798
28	0x3c789443	0.015172067
29	0xbdd6463c	-0.10462615
30	0xbc3d322a	-0.011547605
31	0x3c949c23	0.018140858
32	0x3d0bba60	0.034113288
33	0xbd2567ef	-0.040382322
34	0x3d2d1466	0.04225578
35	0xbd3e9f77	-0.046538796
36	0x3d9c2ef3	0.07626142
37	0x3d5fba03	0.054620754
38	0x3dd39386	0.10330872
39	0x3d799e3f	0.06094193
40	0xbc4525ec	-0.012032967
41	0x3d48a330	0.048983753
42	0xbd301ab9	-0.042994235
43	0xbc9ec047	-0.019378794
44	0x3ba26541	0.004955918
45	0x3df48deb	0.11941131
46	0x3dbe1115	0.09280602
47	0xbd9601d7	-0.0732457
48	0xbc545dc8	-0.012961812
49	0x3d84329a	0.06454964
50	0x3d0ab85e	0.033867233
51	0x3d26cadf	0.040720817
52	0x3d98986b	0.074509464
53	0xbd886615	-0.066600956
54	0x3d996689	0.0749026
55	0xbd5db13a	-0.054124095
56	0x3d26a166	0.040681265
57	0xbd7cce08	-0.061719924
58	0xbde92223	-0.11383464
59	0x3dd24e77	0.10268872
60	0x3de12b64	0.10994604
61	0xbd940f04	-0.072294265
62	0x3c86f5d8	0.01647465
63	0xbc98f5ea	-0.018671948
64	0xbe0f4f71	-0.13995148
65	0xbdf2c1e5	-0.11853389
66	0xbe65fdc6	-0.22460088
67	0xbc9236a6	-0.017848324
68	0xbda1eca6	-0.07906465
69	0xbdfadb09	-0.12248809
70	0x3d8034d9	0.0626008
71	0xbb0cb7d4	-0.0021471875
72	0xbb4328ae	-0.0029778886
73	0xbe07a4c4	-0.13246447
74	0xbd29d830	-0.041465938
75	0xbe0dea5e	-0.13858935
76	0xbd79f144	-0.061021104
77	0xbceb9fde	-0.028762754
78	0xbd698be2	-0.05701817
79	0xbe064ea4	-0.13115937
80	0xbdf9ad31	-0.12191237
81	0xbb9dacbc	-0.0048118513
82	0x3d7c3ad9	0.06157956
83	0xbdfb695b	-0.12275954
84	0x3d3682ad	0.044558216
85	0xbcc35583	-0.023844486
86	0xbc89a159	-0.01680057
87	0x3d0689a8	0.032846123
88	0xbd6e7b2f	-0.058222946
89	0x3c2321eb	0.009956817
90	0xbbbc9caa	-0.0057559805
91	0xbd9cebb4	-0.07662144
92	0xbd576713	-0.052588534
93	0x3c394414	0.011307735
94	0xbd3a77f3	-0.04552455
95	0x3db35d1e	0.08757995
96	0x3d5b36c6	0.053519033
97	0xbbeb0945	-0.007172736
98	0x3d7dd998	0.06197509
99	0x3d021d42	0.031766184
100	0xbc9a6baf	-0.018850176
101	0x3d0ea393	0.034823965
102	0x3dc7a318	0.097479045
103	0xbd1fa588	-0.038976222
104	0xbdc6a4d0	-0.09699404
105	0x3de3a1f9	0.11114878
106	0x3d634ae4	0.055491343
107	0x3d26fac1	0.04076648
108	0x3d83bd77	0.06432622
109	0x3dfa25bb	0.12214228
110	0x3d855ecf	0.06512224
111	0x3c0890a2	0.008335264
112	0x3c2fb315	0.010723849
113	0x3df2dac9	0.11858136
114	0xbc966365	-0.018357942
115	0xbded3c68	-0.11583787
116	0xbcba74aa	-0.022760708
117	0x3bd67f7d	0.0065459595
118	0x3deacf61	0.11465336
119	0x3d917333	0.07102051
120	0xbda0a0f5	-0.078432
121	0x3bc62447	0.006046805
122	0xbd7e588b	-0.06209616
123	0x3d75b887	0.059990432
124	0x3d2118af	0.03933018
125	0x3d00f92b	0.031487625
126	0x3da8dcd6	0.08245246
127	0x3b7698a4	0.0037627602
128	0x3cafc1eb	0.021454772
129	0x3d4f720d	0.050645877
130	0x3d014410	0.03155905
131	0xba9ab1a3	-0.0011802207
132	0x3d91cab5	0.071187414
133	0x3d9b2c60	0.07576823
134	0xbd9f4af5	-0.07777969
135	0xbded285f	-0.11579966
136	0xbda95fb9	-0.08270211
137	0xbd046054	-0.03231843
138	0xbcba8b0a	-0.022771377
139	0x3cde2716	0.027118247
140	0x3d82ea21	0.06392313
141	0xbe34b8ca	-0.17648616
142	0xbdd5fae0	-0.10448241
143	0xbc3d8604	-0.011567596
144	0xbd80bae5	-0.06285647
145	0xbd22f3ec	-0.039783403
146	0x3d970114	0.073732525
147	0xbd86aba9	-0.0657571
148	0xbdac7ded	-0.08422456
149	0xbdd6f6c5	-0.10496286
150	0xbd642316	-0.055697523
151	0xbc1e0e2f	-0.009646936
152	0xbd76dca7	-0.060269024
153	0xbd684da8	-0.056714684
154	0xbddff61d	-0.10935614
155	0xbd3d3d0a	-0.04620079
156	0xbc08f83f	-0.008359968
157	0x3d44c222	0.048036702
158	0xbc400f1d	-0.011722353
159	0xbd6ba48d	-0.057529975
160	0xbdb161af	-0.0866121
161	0xbd51868a	-0.051153697
162	0x3c956a23	0.018239086
163	0xbdf2567b	-0.11832901
164	0xbde1fd13	-0.11034598
165	0xbda14b8d	-0.07875738
166	0xbd1abb8d	-0.03777652
167	0xbda8cb46	-0.08241896
168	0xbda56036	-0.080749914
169	0xbc799d58	-0.015235268
170	0x3cda4211	0.026642831
171	0xbdebdf23	-0.11517169
172	0x3c650191	0.013977424
173	0xbcfc04c4	-0.030763991
174	0x3d7e0628	0.06201759
175	0xbd940f02	-0.07229425
176	0x3c999d78	0.018751845
177	0x3cda61c8	0.026657954
178	0xbde9c484	-0.114144355
179	0xbbb32c4e	-0.005467928
180	0x3ca34f62	0.019935314
181	0xbd49f5c0	-0.04930663
182	0xbd640bc3	-0.05567528
183	0xbcab03fa	-0.02087592
184	0x3bce43ef	0.0062947194
185	0x3adeefa6	0.0017008677
186	0x3ddaba72	0.10680093
187	0xbda4579e	-0.08024524
188	0xbd24e69c	-0.04025899
189	0xbcd89635	-0.026438812
190	0x3cee9bc9	0.029127019
191	0xbc00ca2c	-0.0078607015
192	0x3c73c59d	0.014878658
193	0x3d357565	0.04430141
194	0xbdf40dc8	-0.11916691
195	0x3c212f3e	0.009837924
196	0xbd3abaa6	-0.045588158
197	0x3ccb791a	0.02483802
198	0xbdae85d2	-0.08521618
199	0xbd1aa52a	-0.03775517
200	0x3cc5137e	0.024057146
201	0xbdac4390	-0.08411324
202	0x3db72473	0.08942499
203	0x3d62a640	0.05533433
204	0xbd97335c	-0.07382843
205	0xbdecc924	-0.11561802
206	0x3dbf814f	0.093508355
207	0x3d882082	0.066468254
208	0x3d12d35e	0.035846107
209	0x3d697719	0.056998346
210	0xbdea3065	-0.11435012
211	0x3cd89ed8	0.02644293
212	0x3d9e1d19	0.07720394
213	0x3dc90203	0.09814837
214	0xbc4eff6d	-0.01263414
215	0xbdbd2c9f	-0.092370264
216	0xbe02ec0a	-0.12785354
217	0xbd3dcf1b	-0.04634009
218	0xbe13895c	-0.14407867
219	0x3c3b894b	0.011446307
220	0xbe06e0f6	-0.13171753
221	0xbe0b62ed	-0.13611956
222	0x3c13007d	0.008972284
223	0xbde79368	-0.113074124
224	0xbd2edce7	-0.042691138
225	0xbd062113	-0.032746386
226	0xbe0e2314	-0.13880569
227	0xbdf7c34b	-0.12097796
228	0xbcbc3275	-0.022973279
229	0x3de8e69b	0.113721095
230	0xbd134cf7	-0.03596207
231	0xbc1acdc5	-0.009448473
232	0xbd97dbd8	-0.07414979
233	0x3b09ae23	0.0021008335
234	0xbd6e8a96	-0.058237635
235	0xbc8116e7	-0.015757991
236	0x3cd8f6a5	0.026484797
237	0xbd157da8	-0.03649679
238	0xbd52a94c	-0.051430985
239	0xbde856a6	-0.11344652
240	0x3df71108	0.12063795
241	0x3debaae0	0.11507201
242	0xbdd5b3af	-0.104346626
243	0x3e02f66e	0.12789318
244	0x3c941841	0.018077971
245	0xbcd3d2c3	-0.025857335
246	0xbe04c63f	-0.1296625
247	0x3e5533f1	0.20820595
248	0x3de8ece0	0.11373305
249	0xbd9fed9f	-0.078089945
250	0xbc2d2bbe	-0.010569511
251	0x3e0476bf	0.12935923
252	0xbd25a868	-0.040443808
253	0x3e07b611	0.13253047
254	0x3d14d91d	0.036339868
255	0x3e6ce703	0.23134999

res1.conv1.bias f4 [8]
0	0x3d7e292e	0.06205099
1	0x3afd052e	0.0019303912
2	0xbd2e13e5	-0.04249944
3	0x3d3a4e4d	0.04548483
4	0x3bbdcba8	0.0057921
5	0xbbbc2d6c	-0.0057427194
6	0x3d456d3f	0.04819989
7	0x3da6f922	0.08152987

res1.conv2.weight f4 [8, 8, 3, 3]
0	0x3dbd7132	0.09250106
1	0x3dc884ec	0.09790978
2	0xbdc2bb60	-0.09508395
3	0x3ce9395d	0.028469736
4	0x3db205bb	0.08692499
5	0x3d3a4cfb	0.04548357
6	0x3cf54dbe	0.029944297
7	0x3c03d911	0.008047358
8	0x3d4e9daa	0.05044333
9	0x3d832517	0.06403559
10	0x3b0bc57f	0.0021327434
11	0x3d5a5eaa	0.053312935
12	0x3dc5f31e	0.096655115
13	0x3df09b8a	0.11748417
14	0xbca57ac3	-0.020200139
15	0xbde586e6	-0.112073705
16	0xbce06b2f	-0.02739486
17	0x3da17110	0.07882893
18	0x3d422d5a	0.047406532
19	0xbdc5e242	-0.09662296
20	0x3d4a9284	0.049456134
21	0xbd1372e3	-0.035998236
22	0xbd50dc84	-0.05099155
23	0x3b7e57b6	0.0038809604
24	0xbc4d8199	-0.0125431055
25	0x3cbd1223	0.023079937
26	0xbd177f63	-0.03698672
27	0x3d48cc84	0.049023166
28	0x3dfb1380	0.12259579
29	0xbc3d7e6e	-0.011565788
30	0xbc753665	-0.014966582
31	0x3d827f49	0.06371934
32	0x3d689a32	0.056787677
33	0x3dde4e59	0.108547874
34	0xbd8fcbfa	-0.07021327
35	0x3d3e8d23	0.046521317
36	0x3cd05691	0.025431903
37	0x3dc3d365	0.09561805
38	0x3d4ec445	0.050480146
39	0x3d948e83	0.072537445
40	0x3ca97414	0.020685233
41	0x3cbe5cb5	0.023237566
42	0x3d1e1160	0.03859079
43	0x3d6c5f4e	0.057708077
44	0x3c5e29c7	0.013559765
45	0x3c18e4f7	0.009331933
46	0x3cca0f3c	0.024665467
47	0x3a7eb739	0.00097166334
48	0x3e121206	0.14264688
49	0x3da47e05	0.08031849
50	0xbe244a83	-0.16044049
51	0xbcac8639	-0.021060096
52	0x3b05288e	0.0020318362
53	0xbd57f677	-0.05272528
54	0xbc424e0b	-0.011859427
55	0x3d69796b	0.05700056
56	0x3d8a9e76	0.06768505
57	0x3db0193b	0.08598562
58	0xbc4ca0d0	-0.012489513
59	0x3de524cd	0.1118866
60	0xbddee745	-0.10883955
61	0xbdca97ab	-0.098922096
62	0x3d230165	0.03979625
63	0x3d0e0fbd	0.034682978
64	0x3c2935db	0.010327782
65	0xbdba849c	-0.091073245
66	0x3c8e743f	0.017389415
67	0x3b7804d4	0.0037844675
68	0xbde636f9	-0.11240954
69	0x3dc6c11b	0.09704801
70	0xbdbc6ff4	-0.09201041
71	0xbd457f3c	-0.048217043
72	0x3cb3d19c	0.021950535
73	0xbd82c5e2	-0.063853994
74	0x3d577345	0.052600164
75	0xbdaae4a7	-0.08344393
76	0xbdffdccc	-0.124932855
77	0x3de6dd2f	0.11272656
78	0xbd6c80a4	-0.05773987
79	0x3d301339	0.042987082
80	0xbceae9f1	-0.028676005
81	0xba819688	-0.0009886781
82	0xbd7ab4fe	-0.061207764
83	0x3cdafcc2	0.026731852
84	0xbd302251	-0.043001477
85	0xbd7b5c7c	-0.061367497
86	0x3d40f8dd	0.047112335
87	0xbce1da1e	-0.027569827
88	0xbc213c8d	-0.009841097
89	0xbbfac707	-0.0076531204
90	0x3da3dce3	0.08001115
91	0x3dcb136e	0.09915815
92	0xbc4f30af	-0.012645884
93	0x3c42378c	0.011854064
94	0xbd087c22	-0.033321507
95	0x3da30eb2	0.07961787
96	0xbbd53970	-0.006507091
97	0x3d7ae218	0.061250776
98	0xbd77878b	-0.060432
99	0xbd969aa3	-0.07353713
100	0x3d4ff86f	0.050774034
101	0x3d8298fc	0.06376836
102	0xbd4337eb	-0.04766075
103	0xbca5ae5b	-0.02022474
104	0x3d6f176c	0.058371946
105	0xbcc04242	-0.023469094
106	0x3df26c6c	0.11837086
107	0xbd931f09	-0.07183654
108	0xbd1c038a	-0.038089313
109	0x3e09a162	0.13440469
110	0x3d753245	0.059862394
111	0x3e058a26	0.1304098
112	0x3db9fefa	0.09081836
113	0x3e1c844e	0.15284845
114	0x3deb15ae	0.114787444
115	0xbd1921fb	-0.037385922
116	0xbd13d74a	-0.036093988
117	0x3d571a7c	0.05251549
118	0xbe01a1e6	-0.12659416
119	0xbc47502c	-0.012165111
120	0x3d5afa00	0.053461075
121	0x3d2f13b0	0.042743385
122	0xbd69d26a	-0.057085432
123	0x3cd997eb	0.026561698
124	0xbddb699c	-0.10713503
125	0xbdb86a39	-0.09004635
126	0x3d343984	0.044000164
127	0xbdaedc07	-0.08538061
128	0xbc24e170	-0.010063514
129	0x3db832b5	0.089940466
130	0xbdacf10b	-0.08444413
131	0x3de58a8b	0.112080656
132	0x3c0b4c3b	0.0085020615
133	0x3df0e629	0.117626496
134	0xbd852f18	-0.06503123
135	0xbdc2afdf	-0.09506201
136	0x3d2ff423	0.042957436
137	0xbdc6072a	-0.09669335
138	0x3df8dc35	0.12151376
139	0xbd3052a4	-0.043047562
140	0x3d76f0a7	0.060288098
141	0x3d53b896	0.051689707
142	0xbdd18d8d	-0.10232077
143	0x3d9839ec	0.07432923
144	0x3cbc265d	0.022967512
145	0xbe1f3a77	-0.15549646
146	0xbd64f6c2	-0.05589939
147	0x3cc293e8	0.023752168
148	0x3d9414cf	0.072305314
149	0xbce464af	-0.02788004
150	0x3d0c304b	0.034225743
151	0xbc3c4826	-0.011491811
152	0x3d9190ea	0.07107718
153	0xbdc193dd	-0.09452031
154	0xbd6752f6	-0.056475602
155	0x3e0060c4	0.12536913
156	0x3d8fc9a7	0.07020884
157	0x3da0c5cb	0.07850226
158	0x3bb24d4e	0.0054413443
159	0xbd949b1d	-0.07256148
160	0xbdab25b1	-0.083567984
161	0x3db0dcf1	0.08635891
162	0xbc716109	-0.014732608
163	0xbd5729fa	-0.052530266
164	0x3cf1fdfc	0.029540055
165	0x3def2ba1	0.116782434
166	0xbced852d	-0.028994167
167	0x3de1ba33	0.11021843
168	0x3d2898a4	0.041161194
169	0x3d726ed4	0.059187725
170	0x3de6f8d7	0.11277931
171	0x3cad813d	0.02117979
172	0x3ddef42d	0.108864166
173	0x3e111968	0.14169848
174	0xbcba5524	-0.022745676
175	0xbda856ac	-0.08219656
176	0x3d50f31b	0.051013093
177	0xbca676d5	-0.020320335
178	0xbd9a40fc	-0.07531926
179	0xbda3c48e	-0.07996474
180	0x3d8ce4e7	0.06879597
181	0xbd1ee906	-0.038796447
182	0xbd9a9a2c	-0.07548937
183	0x3da3d591	0.07999719
184	0xbd15d45c	-0.036579475
185	0x3d0072d1	0.031359497
186	0x3ceb1537	0.02869664
187	0xbd7db5af	-0.061940845
188	0xbcbdb81d	-0.023159081
189	0xbd992aa5	-0.07478837
190	0x3c47a636	0.012185624
191	0x3db92774	0.09040728
192	0xbd948ae6	-0.07253055
193	0x3dc6e5d7	0.09711807
194	0x3cd5d3ef	0.026102034
195	0xbd1e837b	-0.03869961
196	0xbd94322a	-0.072361305
197	0x3cf49832	0.029857729
198	0xbc11422b	-0.008865873
199	0xbd803418	-0.06259936
200	0x3de7405f	0.11291575
201	0x3c3485d6	0.011018237
202	0xbd4a8260	-0.04944074
203	0x3bce499c	0.006295396
204	0x3ddd4837	0.108047895
205	0xbd249537	-0.040181365
206	0x3d897dd8	0.06713456
207	0xbccf3b30	-0.025296777
208	0xbcbe5dfc	-0.023238175
209	0xbd80712b	-0.06271585
210	0xbdacfef4	-0.08447066
211	0xbd04c25b	-0.032411914
212	0x3d7683d9	0.060184333
213	0xbba7a03c	-0.005115537
214	0x3d9e1cd8	0.07720345
215	0x3c907361	0.017633142
216	0x3ca1d4eb	0.019754848
217	0xbda6ea9b	-0.08150216
218	0xbd4db50e	-0.050221495
219	0xbd488dcd	-0.048963357
220	0xbcf6f0e4	-0.030144162
221	0xbd14e8f5	-0.036354978
222	0xbd71b737	-0.059012618
223	0xbd9329c2	-0.07185699
224	0x3cea1ce5	0.028578231
225	0x3d062a40	0.032755136
226	0xbdda2071	-0.10650719
227	0x3d869f6d	0.06573377
228	0x3d82de87	0.063901
229	0x3dc8a117	0.097963504
230	0xbdbab16d	-0.091158725
231	0x3d929a1e	0.07158302
232	0xbd820565	-0.06348685
233	0xbdaea3eb	-0.085273586
234	0x3d84a7f5	0.06477348
235	0xbdad7895	-0.08470265
236	0xbd8bd69a	-0.068280414
237	0x3db694d2	0.08915104
238	0xbd02bbab	-0.031917255
239	0xbc158fcf	-0.009128525
240	0x3dedace6	0.116052434
241	0xbd8ce30d	-0.06879244
242	0x3ccf7eee	0.02532908
243	0x3d8b0300	0.067876816
244	0x3d28e430	0.04123324
245	0xbd8e3833	-0.06944313
246	0x3cca48d7	0.024692936
247	0xbcffa301	-0.031205656
248	0xbbb459d3	-0.005503872
249	0x3c1d0bc2	0.009585323
250	0xbd8df538	-0.069315374
251	0xbdf5eb97	-0.12007826
252	0xbd5b29c1	-0.053506617
253	0x3e01dc5e	0.1268172
254	0x3d8d8127	0.069093995
255	0x3dec49c0	0.11537504

res1.conv2.bias f4 [8]
0	0x3cc970d7	0.024589939
1	0x3db85fac	0.09002623
2	0x3d9364f2	0.07196988
3	0xbcef9b0e	-0.02924874
4	0x3cdcb060	0.02693957
5	0x3d96f4ee	0.073709354
6	0x3cfaddec	0.030623399
7	0x3de97439	0.11399121

res2.conv1.weight f4 [8, 8, 3, 3]
0	0xbcd57854	-0.026058353
1	0x3c41848f	0.01181139
2	0x3dca4a40	0.09877443
3	0x3c842648	0.016131535
4	0x3d01bb42	0.031672724
5	0x3deb2351	0.114813454
6	0xbdacff9c	-0.08447191
7	0x3d926407	0.07147985
8	0xbda4e101	-0.080507286
9	0xbd74a77f	-0.05973005
10	0xbda6f804	-0.08152774
11	0x3d0364c7	0.03207853
12	0x3dfbd99e	0.122973666
13	0x3da6aa72	0.081379786
14	0xbce6e686	-0.028186094
15	0x3dc5a8ee	0.096513614
16	0x3d82ea0a	0.06392296
17	0xbd75bd8a	-0.05999521
18	0x3d012d9f	0.03153765
19	0x3c369d19	0.011145853
20	0xbd97f128	-0.07419044
21	0xbd09d3d4	-0.03364928
22	0xbc527a84	-0.012846593
23	0x3d950ccc	0.072778314
24	0xbc30ac34	-0.010783244
25	0xbd4cd8ca	-0.050011434
26	0x3db1c387	0.08679872
27	0x3e03dc8f	0.12877105
28	0xbd5252bd	-0.051348437
29	0x3db0c036	0.08630411
30	0xbd554872	-0.052071042
31	0x3dcf87d7	0.10133331
32	0x3d8e5d5f	0.06951403
33	0xbc539d3f	-0.012915908
34	0x3e190b9f	0.1494584
35	0x3ce8c820	0.02841574
36	0x3d6b6adb	0.057474952
37	0x3da6502b	0.081207596
38	0x3d8abfe0	0.067748785
39	0xbdca99ce	-0.09892617
40	0x3d6f9bbf	0.05849814
41	0x3d2bd71a	0.041953184
42	0xbdb08cb2	-0.086205855
43	0xbce878dc	-0.028377943
44	0xbda34da3	-0.079737924
45	0xbd352b7f	-0.044230934
46	0xbda82372	-0.08209886
47	0x3c8955d8	0.016764566
48	0x3d9dbf2b	0.07702478
49	0xbd3d2498	-0.046177477
50	0xbdc06977	-0.09395116
51	0x3c71b1d0	0.014751866
52	0xbda64d62	-0.08120228
53	0x3d8d73bd	0.06906841
54	0x3dde703e	0.10861252
55	0xbdb7c270	-0.08972633
56	0xbdcdefa8	-0.100554764
57	0xbd438c14	-0.04774101
58	0xbd5b145c	-0.053486213
59	0xbcff5c52	-0.031171951
60	0x3d9f3ccb	0.07775267
61	0x3da9b1e2	0.082858816
62	0x3db98ef9	0.09060473
63	0x3d0b9dfd	0.034086216
64	0x3d5ba976	0.053628407
65	0xbdc4f760	-0.096174955
66	0x3b816a07	0.003949407
67	0x3d9c46f0	0.07630718
68	0x3d4a71ee	0.049425058
69	0xbdf532fc	-0.11972615
70	0x3c658153	0.014007884
71	0x3d663e05	0.05621149
72	0x3b93439d	0.004494144
73	0x3d868b8b	0.065695845
74	0x3d6fd620	0.058553815
75	0xbd0b82c6	-0.034060262
76	0xbd12739c	-0.035754785
77	0x3db22748	0.086988986
78	0x3be2423b	0.006904868
79	0xbc07b9b4	-0.008284021
80	0xbdd626d2	-0.10456623
81	0xbcc217ac	-0.023692928
82	0x3dc482fd	0.095952965
83	0x3b54dd0f	0.0032480394
84	0xbdaf2dba	-0.085536435
85	0xbc253e2c	-0.010085624
86	0x3dc8f9d4	0.09813276
87	0x3ddb1e35	0.10699121
88	0x3de2cc97	0.11074179
89	0xbc91eb54	-0.017812409
90	0xbd0899e3	-0.033349883
91	0x3d717b94	0.058955744
92	0x3e04404a	0.1291515
93	0xbcb89c10	-0.022535354
94	0xbd05b1f5	-0.032640416
95	0x3d201ba0	0.039088845
96	0x3d91a3ab	0.07111295
97	0x3da94abb	0.08266207
98	0xbdd0fdd8	-0.10204667
99	0xbd7482a8	-0.059694916
100	0x3da7314c	0.081636995
101	0x3d23aad9	0.039957855
102	0xbd6f3a6b	-0.05840532
103	0x3dc780eb	0.09741386
104	0x3d311e17	0.043241587
105	0x3dec4fc5	0.11538652
106	0x3ca8ee8b	0.020621559
107	0x3d9edc84	0.07756904
108	0xbda1b0e2	-0.07895066
109	0x3de1bb16	0.11022012
110	0xbdbe1426	-0.09281187
111	0x3cbaf83b	0.022823444
112	0xb97ff873	-0.0002441125
113	0x3db16df8	0.08663553
114	0x3d1a9e8b	0.037748855
115	0xbdb735df	-0.08945822
116	0x3dc25cc5	0.09490351
117	0x3bb74ee8	0.005594123
118	0x3d0d9cb5	0.034573276
119	0x3dd88685	0.105725326
120	0xbde8952a	-0.11356576
121	0xbda6edc2	-0.081508175
122	0x3c214fdd	0.009845701
123	0xbcaddd94	-0.02122382
124	0xbdf389fb	-0.11891552
125	0xbdad6618	-0.084667385
126	0xbd384db9	-0.044995997
127	0xbd5bea98	-0.053690523
128	0xbcd7f6d1	-0.026362808
129	0xbcba137d	-0.02271437
130	0x3d405b03	0.046961796
131	0x3d8819b8	0.066455305
132	0x3dc78bab	0.097434364
133	0xbd3776bc	-0.04479097
134	0x3cb88834	0.022525884
135	0x3c8088e9	0.015690284
136	0xbd5bcc54	-0.05366166
137	0x3d1c960c	0.038229033
138	0x3d51fe0f	0.05126768
139	0xbdc59b80	-0.096488
140	0x3c11a7c1	0.008890093
141	0x3de954a4	0.11393097
142	0x3bd54f32	0.006509685
143	0x3d88d0d3	0.06680455
144	0x3d864818	0.065567195
145	0x3d5743c3	0.052554857
146	0x3b49232f	0.0030691137
147	0x3dcaa7f5	0.098953165
148	0xbdb079cd	-0.08616982
149	0x3dd6fdc5	0.104976214
150	0x3cbf0885	0.023319492
151	0x3dd9c9d1	0.106341965
152	0xbdb53b07	-0.08849149
153	0x3ba04a84	0.0048916955
154	0xbd8dbf25	-0.069212236
155	0x3bd2eeec	0.006437173
156	0xbd97c0b6	-0.074098036
157	0x3d6bf457	0.057606068
158	0x3d1a7c92	0.037716456
159	0x3d0d6291	0.03451783
160	0x3db18031	0.08667029
161	0x3d591639	0.05299971
162	0x3dc04952	0.09388985
163	0x3d82de52	0.063900605
164	0x3d63d3ae	0.055621795
165	0xbd081d22	-0.03323091
166	0x3da36361	0.079779394
167	0x3d4a2a8f	0.049356993
168	0xbdc816ff	-0.09770011
169	0xbcafdbbc	-0.021467082
170	0xbd88a370	-0.06671798
171	0x3d47d2c4	0.048784986
172	0x3d65eef2	0.05613608
173	0x3d5ce3a1	0.05392802
174	0x3db026e1	0.086011656
175	0xbe0711e8	-0.13190424
176	0x3c39c190	0.011337653
177	0xbd1354a9	-0.03596941
178	0x3c9c8f70	0.019111365
179	0xbd7e2ab2	-0.062052436
180	0xbd7497c4	-0.059715047
181	0x3ca1cdb4	0.019751407
182	0xbd3c5970	-0.04598373
183	0x3c965242	0.01834977
184	0xbe0497bb	-0.12948506
185	0x3c12451a	0.008927608
186	0x3d9367ed	0.07197557
187	0x3c896d51	0.016775759
188	0x3d0d6bee	0.034526758
189	0xbd77625c	-0.060396537
190	0x3d55b231	0.05217189
191	0x3d28f89d	0.04125272
192	0x3da08b6f	0.07839095
193	0x3debc729	0.11512596
194	0x3b0f68f0	0.0021882616
195	0xbcfcd80d	-0.03086474
196	0x3d68c77e	0.056830876
197	0x3def7b60	0.11693454
198	0x3db7459c	0.08948824
199	0xbdb62e81	-0.08895589
200	0xbcf0a915	-0.0293775
201	0xbd72f1cc	-0.059312627
202	0xbcc450b0	-0.023964256
203	0xbd0772c9	-0.033068452
204	0xbd5be731	-0.05368728
205	0xbd1a7848	-0.037712365
206	0xbc8a6464	-0.016893573
207	0x3dc66853	0.09687867
208	0x3d5cc2e5	0.053896803
209	0x3dbcd817	0.09220903
210	0x3dc5c09d	0.09655879
211	0xbdbea8f9	-0.09309573
212	0xbd9fe393	-0.07807078
213	0x3cd951cd	0.026528263
214	0x3e136df0	0.14397407
215	0xbd4ebb83	-0.050471794
216	0x3de3afb4	0.11117497
217	0xbd506eee	-0.05088704
218	0xbd0d6510	-0.03452021
219	0x3bf89c17	0.0075869667
220	0x3d78c8d5	0.060738403
221	0x3e030347	0.12794219
222	0xbb7a015e	-0.0038147788
223	0xbdcd1284	-0.10013297
224	0xbc6ac191	-0.014328376
225	0x3d802007	0.06256109
226	0x3d544594	0.051824167
227	0x3cea886a	0.0286295
228	0x3c950ccb	0.018194577
229	0x3c92adc1	0.017905118
230	0x3d9a0cb6	0.07521956
231	0x3d64e0af	0.055878337
232	0x3dc5a643	0.096508525
233	0x3da3317c	0.07968423
234	0xbd35b7e6	-0.044364832
235	0x3d5a5675	0.053305108
236	0x3bb9fb1a	0.0056756856
237	0xbc41b39c	-0.011822607
238	0x3dc3898f	0.095477216
239	0x3da31faf	0.079650275
240	0xbd5f2293	-0.054476332
241	0x3e16bd6c	0.14720696
242	0x3df679d1	0.120349534
243	0xbd354e19	-0.044263933
244	0x3d048c4b	0.032360356
245	0x3d682345	0.05667426
246	0xbd7dc4f7	-0.06195542
247	0xbd8bbc94	-0.06823078
248	0x3d213350	0.039355576
249	0x3d075183	0.03303672
250	0x3caf7703	0.021419054
251	0xbb1f107b	-0.0024271298
252	0x3d28a7df	0.04117572
253	0xbd622a82	-0.05521632
254	0xbbb7132b	-0.005587002
255	0xbdc5d6dd	-0.096601225

res2.conv1.bias f4 [8]
0	0x3d95c30f	0.07312595
1	0x3d8c0df8	0.06838602
2	0xbd45ecd4	-0.04832156
3	0xbda7d006	-0.08193974
4	0x3cba8ad6	0.02277128
5	0xbda99a4c	-0.08281383
6	0xbdef3e12	-0.11681761
7	0x3d727efd	0.059203137

res2.conv2.weight f4 [8, 8, 3, 3]
0	0xbd2863b8	-0.041110724
1	0xbbdd2182	-0.006748379
2	0xbca54ad0	-0.020177275
3	0xbce29f9d	-0.027664
4	0xbbbf2aca	-0.0058339583
5	0x3b82d8ad	0.003993115
6	0xba01c126	-0.0004949741
7	0xbdedb263	-0.1160629
8	0x3d0d229e	0.03445684
9	0xbd615d4f	-0.055020627
10	0xbd9a31dd	-0.07529042
11	0xbdc06fce	-0.09396325
12	0x3c56d53b	0.013112362
13	0xbe008235	-0.1254967
14	0x3d35002c	0.044189617
15	0x3cc0ceb4	0.023536064
16	0xbd322537	-0.043492522
17	0xbdb3c461	-0.08777691
18	0x3db6a56f	0.08918273
19	0xbdde4894	-0.10853687
20	0xbd1247ea	-0.035713114
21	0x3d5373e9	0.051624212
22	0xbdca55cc	-0.09879646
23	0xbc9c7c42	-0.01910222
24	0x3e035391	0.12824847
25	0xbd78051d	-0.06055175
26	0x3e0484ab	0.12941234
27	0xbdb12bd4	-0.08650938
28	0xbd379e86	-0.044828914
29	0xbdaddbe9	-0.0848921
30	0xbce7206d	-0.028213704
31	0x3d75c948	0.06000641
32	0x3d8676f0	0.06565654
33	0x3d99a1b9	0.07501549
34	0x3d3a3ec9	0.045470033
35	0x3d71a482	0.058994778
36	0x3dbcc119	0.09216518
37	0x3d9d3d34	0.07677689
38	0x3de86d98	0.11349028
39	0x3d90fdb2	0.070796385
40	0xbdc142ab	-0.09436544
41	0x3c444ca0	0.011981159
42	0xbb79b0cd	-0.0038099766
43	0xbc1ddf21	-0.009635718
44	0xbd381cd6	-0.044949375
45	0xbd9a1108	-0.0752278
46	0x3c6ec48a	0.014573226
47	0x3d8c89a7	0.068621926
48	0x3d80c0a0	0.0628674
49	0xbdcaaefe	-0.09896658
50	0x3d4ec87b	0.05048416
51	0x3cf927f6	0.030414563
52	0x3e04f8f7	0.12985598
53	0xbba48cdb	-0.005021674
54	0xbd1fa601	-0.038976673
55	0x3d3f40c5	0.04669263
56	0xbc5f4f3b	-0.01362973
57	0x3d032de9	0.032026205
58	0x3dff98d7	0.12480324
59	0x3dce9194	0.100863606
60	0x3d16fd69	0.036862765
61	0x3da46042	0.08026172
62	0x3dd3f767	0.103499226
63	0xbcc0ed1d	-0.023550564
64	0xbd82c8b4	-0.06385937
65	0x3df1cfa1	0.1180718
66	0xbc15ccc6	-0.00914306
67	0xbd49804c	-0.04919462
68	0x3c62a9ad	0.013834399
69	0xbdb7e99d	-0.08980105
70	0x3d8a3cfc	0.06749913
71	0xbb8d2781	-0.0043076877
72	0x3d5e4d73	0.05427308
73	0xbc882913	-0.016621148
74	0xbddeff4e	-0.10888539
75	0x3d501152	0.050797768
76	0x3cf8c404	0.030366905
77	0xbd175a85	-0.03695156
78	0xbcb47a62	-0.022031013
79	0xbd2195c7	-0.03944948
80	0x3d8bc182	0.06824018
81	0xbd93c9e0	-0.07216239
82	0x3bbc9be4	0.0057558883
83	0x3d037529	0.032094155
84	0x3d849fa8	0.064757645
85	0xbde04709	-0.10951049
86	0xbd4e4c0c	-0.050365493
87	0xbd7a0d11	-0.061047617
88	0x3d59dd92	0.05318982
89	0xbd6afc79	-0.057369683
90	0x3c2ad381	0.010426403
91	0x3c2035ac	0.009778421
92	0xbdf2d5ff	-0.11857223
93	0x3dbfce01	0.09365464
94	0x3de324e8	0.11091024
95	0xbdfee9d2	-0.124469414
96	0x3d80ee4c	0.062954515
97	0x3e05b256	0.13056311
98	0xbd44d775	-0.04805704
99	0xbcea9789	-0.02863671
100	0x3e12c574	0.14333135
101	0xbdb5d87c	-0.08879182
102	0x3d504708	0.05084899
103	0xbd7d6a3c	-0.06186889
104	0x3d816e53	0.06319871
105	0x3be394ce	0.006945229
106	0xbd962f7d	-0.073332764
107	0x3d2a65a5	0.041600842
108	0xbceee1d7	-0.029160423
109	0xbaa200e9	-0.001235989
110	0x3d00b016	0.03141793
111	0x3cf3f44a	0.029779572
112	0x3cd0e9b3	0.025502061
113	0x3dadae91	0.084805615
114	0x3a1a16ea	0.0005878048
115	0xbd5e3632	-0.054250903
116	0x3d7d031f	0.061770555
117	0x3c1b0a2a	0.0094628725
118	0x3d769c19	0.06020746
119	0xbd963fc0	-0.07336378
120	0xbb45213c	-0.0030079624
121	0xbd29fd29	-0.041501198
122	0x3ab570d3	0.0013842828
123	0x3e0616c0	0.13094616
124	0x3dc6cd7d	0.097071625
125	0x3d9af3e6	0.07566051
126	0x3e0bf0ac	0.13666028
127	0x3dd500b3	0.10400524
128	0x3d72c375	0.059268434
129	0xbdd99f54	-0.106260926
130	0xbdaf4252	-0.085575715
131	0x3cb5846e	0.022157874
132	0x3c6205b9	0.01379531
133	0xbda60f7d	-0.08108423
134	0x3cfc3bf5	0.030790308
135	0x3c93f2b1	0.01806006
136	0x3da04d42	0.07827236
137	0x3d526e21	0.05137456
138	0x3d8ad54f	0.06778967
139	0xbc338aef	-0.010958417
140	0x3d213410	0.03935629
141	0x3cacb2fa	0.021081436
142	0x3d11ffe3	0.035644423
143	0xbb8d591c	-0.004313601
144	0xbd976618	-0.0739252
145	0xbbee899c	-0.007279588
146	0xbcd674d0	-0.026178747
147	0x3def816e	0.11694609
148	0xbe019dd7	-0.12657867
149	0x3d2db04d	0.04240446
150	0xbd1ede14	-0.03878601
151	0xbdc16c60	-0.09444499
152	0xbdbac5d7	-0.09119766
153	0xbd2bf05d	-0.041977275
154	0xbbf302ee	-0.0074161207
155	0xbd319c21	-0.043361787
156	0xbdc9dab7	-0.0985617
157	0x3e01aecf	0.1266434
158	0xbd985118	-0.074373424
159	0xbd168313	-0.036746096
160	0xbc7903d3	-0.015198666
161	0x3d67e3ae	0.056613617
162	0x3d18d7e7	0.037315276
163	0xbdcd0ec0	-0.10012579
164	0x3cd2df1e	0.025741156
165	0xbbf2f82c	-0.0074148383
166	0xbd33fb43	-0.043940794
167	0x3da10269	0.07861788
168	0xbd73bbe6	-0.059505366
169	0x3da0c9f2	0.07851018
170	0xbdc37b96	-0.095450565
171	0x3dd89d92	0.10576929
172	0xbcbdad4a	-0.02315392
173	0x3d4489ec	0.047983095
174	0xbd89b0d3	-0.0672318
175	0x3dcdcccd	0.10048828
176	0xbdcbaccf	-0.0994507
177	0x3e042aa8	0.12906897
178	0x3e03a0b8	0.12854278
179	0xbd3d9146	-0.04628112
180	0x3d8c1575	0.0684003
181	0x3c1bd157	0.00951036
182	0x3cdc0004	0.026855476
183	0x3d12f05f	0.035873767
184	0x3ce971ea	0.028496701
185	0x3db1a36e	0.0867375
186	0x3defd888	0.11711222
187	0xbdd12f3b	-0.102140866
188	0x3dcd7774	0.100325495
189	0xbdd498d6	-0.10380714
190	0xbc08ead8	-0.008356772
191	0xbda04f82	-0.07827665
192	0xbd8772db	-0.06613704
193	0xbddf627e	-0.10907458
194	0xbca01cf2	-0.019545052
195	0xbd30da47	-0.043176915
196	0xbd46768e	-0.048452906
197	0x3d89d823	0.06730678
198	0x3c43ea5a	0.011957729
199	0xbbf806e2	-0.00756918
200	0x3d7ea428	0.06216827
201	0x3d6fdebf	0.058562037
202	0xbbecfb28	-0.0072320886
203	0x3dad87f6	0.08473198
204	0xbd25b138	-0.040452212
205	0x3df496e1	0.1194284
206	0xbdc2211f	-0.094789736
207	0xbcd83bc7	-0.026395692
208	0xbd827960	-0.06370807
209	0xbd8ae86c	-0.06782612
210	0x3d8a8451	0.067635186
211	0x3e1b39ac	0.15158719
212	0xbc5389e0	-0.01291129
213	0xbcda8228	-0.026673391
214	0x3d53038d	0.05151706
215	0x3b9e422a	0.0048296647
216	0xbcb0cce1	-0.021582069
217	0xbcfff18a	-0.031243104
218	0xbc7e7bb6	-0.015532425
219	0xbd95e7ea	-0.07319625
220	0xbd154f52	-0.0364526
221	0x3d8f09cd	0.06984291
222	0x3d1ab444	0.03776957
223	0xbdb3ec67	-0.087853245
224	0x3d5791a0	0.052629113
225	0xbe16b66f	-0.1471803
226	0xbdb8efc7	-0.09030109
227	0xbd139092	-0.036026545
228	0xbcfd2328	-0.030900553
229	0x3d16e166	0.03683605
230	0xbdfd25aa	-0.123606995
231	0xba3e8df1	-0.0007269076
232	0xbd8de0ff	-0.0692768
233	0xbd6498c1	-0.05580974
234	0xbd69c950	-0.057076752
235	0x3dc7c54f	0.097544305
236	0xbd3b8b17	-0.045786943
237	0x3d91c5fe	0.07117842
238	0x3dbe4c05	0.09291843
239	0x3d7176ba	0.058951117
240	0xbd2b81b0	-0.041871727
241	0xbd47b725	-0.048758645
242	0x3cc8c64e	0.024508622
243	0xbd9883c2	-0.07447006
244	0xbdbcd0f0	-0.09219539
245	0xbdcef8c7	-0.10106044
246	0x3da9cc91	0.08290971
247	0x3e080652	0.13283661
248	0x3d6c4817	0.057685938
249	0x3d9728ba	0.07380815
250	0x3be66cb6	0.0070320023
251	0x3c8798bb	0.01655232
252	0x3db44cac	0.088036865
253	0xbdb3eeec	-0.08785805
254	0xbd59a434	-0.053135112
255	0x3d638f9c	0.05555688

res2.conv2.bias f4 [8]
0	0x3dae0701	0.0849743
1	0x3bd2aeb5	0.006429518
2	0xbd24244a	-0.04007367
3	0x3d4f7759	0.05065093
4	0x3dc87470	0.09787834
5	0xbce1a023	-0.02754218
6	0x3d4d85b2	0.05017633
7	0x3db120d9	0.08648843

res3.conv1.weight f4 [8, 8, 3, 3]
0	0xbda6e00f	-0.081482045
1	0xbdcc1611	-0.09965146
2	0x3db2cbbe	0.08730267
3	0x3d108fb6	0.035293303
4	0xbd819417	-0.06327074
5	0xbc183cff	-0.009291886
6	0xbb9d21e6	-0.004795301
7	0xbdb7c70f	-0.08973514
8	0xbd12613a	-0.035737254
9	0xbd70e921	-0.05881608
10	0xbd40c696	-0.047064386
11	0xbd09d28e	-0.033648066
12	0xbd056980	-0.032571316
13	0xbda27756	-0.07932918
14	0x3de93f69	0.11389048
15	0x3d16a80d	0.03678136
16	0x3d5a7954	0.053338364
17	0x3d91553b	0.070963345
18	0xbd627b24	-0.055293217
19	0x3d6a2cff	0.057171818
20	0xbd9949c4	-0.07484773
21	0x3dcd7b5d	0.10033295
22	0x3dbacb62	0.091208234
23	0x3d2e4705	0.0425482
24	0x3c077cff	0.0082695475
25	0x3c822c8e	0.015890386
26	0xbce589e9	-0.028019862
27	0x3d7c5306	0.061602615
28	0xbd5918bb	-0.0530021
29	0xbcc29bd6	-0.023755949
30	0xbc0b27cf	-0.008493378
31	0xbb4a1583	-0.0030835576
32	0x3d826091	0.06366075
33	0x3d240b10	0.040049613
34	0x3da43c21	0.08019281
35	0xbd8df896	-0.0693218
36	0xbd703a0a	-0.0586491
37	0x3bbb1dfb	0.005710361
38	0x3d2b7e53	0.04186852
39	0xbd1f869a	-0.038946725
40	0x3d5153bb	0.051105242
41	0x3d50ae70	0.050947607
42	0x3b9afa70	0.0047295615
43	0xbc2ab57a	-0.010419244
44	0x3d85c9c5	0.06532625
45	0x3dcbc9ad	0.09950576
46	0x3da38891	0.07985032
47	0x3d39c648	0.04535511
48	0xbc74d231	-0.014942692
49	0xbdb87e4f	-0.090084665
50	0xbd6b3747	-0.057425763
51	0xbd65a845	-0.056068677
52	0xbd4862ea	-0.048922457
53	0xbcbd1504	-0.02308131
54	0x3de67fda	0.112548545
55	0xbda6a908	-0.08137709
56	0x3de75435	0.11295358
57	0x3be7f89c	0.007079197
58	0x3d4ec4e8	0.050480753
59	0x3d6b94e0	0.057515025
60	0x3def4819	0.116836734
61	0x3c60da63	0.013723942
62	0x3c204e74	0.00978433
63	0xbdd21815	-0.102584995
64	0x3d6cb0c7	0.057785776
65	0x3d38ad22	0.045086987
66	0xbd644624	-0.055730954
67	0xbdc8ed89	-0.09810931
68	0x3c17b657	0.009259782
69	0xbcf15f31	-0.029464336
70	0x3d9760f0	0.07391536
71	0x3d853dbe	0.06505917
72	0xbc8d50fb	-0.017250529
73	0xbdd7796b	-0.105212055
74	0x3d9ae1f7	0.075626306
75	0xbcac1432	-0.021005724
76	0xbda8a100	-0.08233833
77	0x3d7d8e57	0.061903324
78	0x3d828642	0.06373264
79	0x3cc4366c	0.023951732
80	0xbca1317f	-0.019676922
81	0xbd4d4af0	-0.050120294
82	0xbcc29313	-0.023751771
83	0xbcf7b444	-0.030237325
84	0xbc848dcf	-0.0161809
85	0x3e0c747a	0.13716307
86	0xbdaeb43e	-0.08530472
87	0x3d677904	0.056511894
88	0xbd50bbcb	-0.050960343
89	0x3ceffcca	0.029295344
90	0x3d939e87	0.07207971
91	0x3dd1385a	0.10215826
92	0x3d12d619	0.03584871
93	0x3dcd9f09	0.10040099
94	0x3d5ce4f7	0.053929295
95	0x3d20a8b4	0.039223388
96	0xbd30199f	-0.042993184
97	0xbc2b23de	-0.010445563
98	0xbd287a0e	-0.041132025
99	0xbdd3667c	-0.10322282
100	0x3e07259b	0.13197939
101	0x3cc08cfc	0.023504727
102	0x3df139a2	0.11778571
103	0xbd7fefe9	-0.062484656
104	0x3dce4c18	0.100731075
105	0x3c364646	0.011125153
106	0x3d3a3a3f	0.045465704
107	0x3d9e36d0	0.077252984
108	0x3d958b89	0.07302005
109	0x3dabb900	0.08384895
110	0x3d617aae	0.055048637
111	0x3daa1f2d	0.083067276
112	0xbd70f877	-0.058830705
113	0x3c486acc	0.012232494
114	0xbc33038e	-0.0109261405
115	0xbdcb9da6	-0.099421784
116	0xbd762b7a	-0.060100056
117	0xbcebef31	-0.028800579
118	0xbd5bf737	-0.05370256
119	0xbd0c13f9	-0.034198735
120	0xbccb3aa0	-0.024808228
121	0xbd811f46	-0.06304793
122	0xbd692d3b	-0.0569279
123	0x3d376e4c	0.04478292
124	0xbd2c9234	-0.042131618
125	0x3de3df4c	0.11126575
126	0xbd8f93b0	-0.07010591
127	0x3d49e6be	0.04929232
128	0x3ddc16f1	0.10746563
129	0xbdc09479	-0.09403319
130	0x3dbba5fb	0.09162518
131	0xbce3c941	-0.027805926
132	0xbd6116d1	-0.0549534
133	0x3d9fd813	0.07804885
134	0xbcfa6895	-0.030567447
135	0x3d776f12	0.06040866
136	0xbd5c6418	-0.053806394
137	0xbd0e625e	-0.03476178
138	0xbd125aaf	-0.035731014
139	0xbdab2883	-0.08357336
140	0x3db621aa	0.0889314
141	0x3c6a8202	0.014313223
142	0xbd5f742c	-0.05455415
143	0xbd40007c	-0.046875462
144	0xbd5faf13	-0.054610323
145	0xbdd0c246	-0.10193305
146	0xbdf019b0	-0.117236495
147	0x3dfe0e02	0.124050155
148	0x3d164100	0.036683083
149	0xbcfd96ad	-0.030955637
150	0x3dcb6676	0.09931652
151	0x3d914e53	0.07095017
152	0x3c9c7c5a	0.019102264
153	0xbd6aa8ca	-0.057289876
154	0x3d92d16a	0.07168849
155	0x3d566cb7	0.052349772
156	0xbbc901a4	-0.006134229
157	0xbcb7c181	-0.022431137
158	0x3df76a48	0.120808184
159	0x3c2dda2f	0.010611101
160	0xbce5ad8b	-0.028036853
161	0xbd900779	-0.07032675
162	0xbda02ec0	-0.07821417
163	0x3cc97239	0.024590598
164	0xbcca0632	-0.024661157
165	0xbd84f2b2	-0.06491603
166	0x3de8b8ae	0.1136335
167	0x3d74e023	0.059784066
168	0x3e025eb5	0.1273144
169	0x3d5451d7	0.05183586
170	0xbd2019f1	-0.03908724
171	0x3d9c88c9	0.07643277
172	0xbd25dd92	-0.04049451
173	0xbdadd2cc	-0.08487472
174	0xbd719ec9	-0.05898932
175	0x3e1f51d3	0.15558557
176	0x3d321ea2	0.043486245
177	0xbc82a93e	-0.015949842
178	0xbd92d438	-0.07169384
179	0x3dc2883d	0.09498642
180	0x3da2ac4d	0.0794302
181	0x3ca72530	0.020403475
182	0xbdcd48c4	-0.100236446
183	0x3d91712b	0.07101663
184	0x3d210b4f	0.039317425
185	0x3dd6cb37	0.10487979
186	0xbdaa8822	-0.083267465
187	0x3c7f7338	0.015591435
188	0xbde08e14	-0.10964599
189	0xbd7dd9a8	-0.06197515
190	0x3d77bfc8	0.06048563
191	0xbd2fcecb	-0.042921823
192	0x3dc9ab0a	0.09847076
193	0xbdaf404e	-0.08557187
194	0xbdf6c958	-0.12050122
195	0x3dace16f	0.084414355
196	0xbdecd33f	-0.115637295
197	0xbda59bf7	-0.080863886
198	0x3d38d5d8	0.045125812
199	0x3d5c5388	0.0537906
200	0x3d49a5d3	0.049230408
201	0x3d7a8b33	0.061167907
202	0xbdb852ca	-0.09000166
203	0x3d8a44b3	0.067513846
204	0xbbfbcfb2	-0.0076846713
205	0xbd5658a9	-0.052330647
206	0xbd0d734f	-0.034533795
207	0xbb30bf26	-0.0026969402
208	0x3d38fe79	0.04516456
209	0x3c3c97f2	0.011510836
210	0xbd7ba915	-0.061440546
211	0xbc793f9d	-0.0152129205
212	0x3d0f308f	0.03495842
213	0x3c32c947	0.010912246
214	0xbd339cb4	-0.043850616
215	0xbc845585	-0.01615406
216	0xbd8bfe40	-0.06835604
217	0xbd010c65	-0.03150596
218	0x3db20b60	0.08693576
219	0xbdaff418	-0.08591479
220	0x3dfa631a	0.122259334
221	0xbd857b68	-0.065176785
222	0xbd592c7f	-0.05302095
223	0xbd41b4c5	-0.047291536
224	0xbc857994	-0.016293325
225	0x3d0f926c	0.03505175
226	0x3dc59157	0.09646862
227	0xbd38180c	-0.044944808
228	0xbd6f83a2	-0.058475144
229	0x3c870af3	0.016484713
230	0xbdb282a5	-0.08716325
231	0xbdc7e407	-0.0976029
232	0x3d9c6b19	0.07637615
233	0xbb3b5fd9	-0.0028591065
234	0x3d956242	0.07294132
235	0x3d2a3230	0.04155177
236	0xbd50e562	-0.051000006
237	0x3d1822a8	0.037142426
238	0xbc89561c	-0.016764693
239	0xbdad24b0	-0.08454263
240	0xbc99a7b3	-0.018756723
241	0xbd9c1a7c	-0.07622239
242	0x3df6098d	0.120135404
243	0xbcba4590	-0.022738248
244	0x3c9194da	0.017771173
245	0x3d99f312	0.07517065
246	0xbdc4fc44	-0.09618428
247	0xbd78d851	-0.06075317
248	0x3d6f9f9a	0.058501817
249	0x3dd6c6b9	0.10487122
250	0x3d8d847a	0.069100335
251	0x3d48e650	0.049047768
252	0x39750a5e	0.00023368883
253	0x3d920536	0.071299
254	0xbd94c155	-0.07263438
255	0xbd8d9824	-0.06913784

res3.conv1.bias f4 [8]
0	0x3d859044	0.06521657
1	0xbd9c8df0	-0.0764426
2	0x3ce8ed2b	0.028433403
3	0x3c049e0c	0.008094322
4	0xbd70e92c	-0.05881612
5	0xbbb9157c	-0.005648313
6	0x3d4a5def	0.04940599
7	0xbe3ee1d9	-0.18640842

res3.conv2.weight f4 [8, 8, 3, 3]
0	0xbd109e0c	-0.035306975
1	0xbdca4da9	-0.09878094
2	0x3d929710	0.07157719
3	0x3da85ddf	0.082210295
4	0xbb60ad5b	-0.0034283015
5	0xbd12cee5	-0.03584184
6	0x3d77922a	0.060442127
7	0xbdb4b277	-0.08823102
8	0xbcc28462	-0.023744766
9	0x3b6e5d62	0.0036371578
10	0xbd71c38a	-0.05902437
11	0x3c714a11	0.014727131
12	0x3d5fbcb9	0.05462334
13	0x3dda5d9b	0.10662385
14	0x3e12987d	0.14315982
15	0xbc5569f1	-0.013025747
16	0x3da89f8d	0.08233557
17	0x3d05622c	0.032564327
18	0x3c3f527a	0.011677379
19	0x3cd60bc1	0.026128652
20	0xbcd9322c	-0.026513182
21	0xbc87125b	-0.016488245
22	0x3ba3cd00	0.004998803
23	0xbd8e86a0	-0.069592714
24	0x3db40599	0.0879013
25	0x3dc6519c	0.096835345
26	0xbdc894da	-0.09794016
27	0xbd98d6cc	-0.07462844
28	0x3e0f50ca	0.13995662
29	0xbdde1dae	-0.10845505
30	0x3da56aac	0.08076987
31	0xbdcc259b	-0.0996811
32	0xbdff0897	-0.1245281
33	0x3d2aa841	0.041664366
34	0xbcb40b57	-0.021978064
35	0xbc3b16f6	-0.0114190485
36	0xbdac72c9	-0.08420331
37	0x3b645bae	0.0034844684
38	0xbdcb575c	-0.09928772
39	0x3d43e0f4	0.047821954
40	0xbd2cb411	-0.042163912
41	0xbcc8e5ac	-0.024523579
42	0xbce67749	-0.028133051
43	0xbde9a2cf	-0.114080064
44	0xb9ccb392	-0.00039043702
45	0xbd8904ff	-0.06690406
46	0xbc97fda2	-0.018553559
47	0x3dd1f45f	0.10251688
48	0xbd7ce69a	-0.061743356
49	0x3dabc608	0.08387381
50	0x3dd1f190	0.102511525
51	0xbd912e92	-0.07088961
52	0x3dbafbd4	0.09130064
53	0xbd9d753a	-0.07688375
54	0xbc09ea8f	-0.0084177395
55	0xbd4d9d94	-0.050199106
56	0x3d05bd68	0.032651335
57	0xbd2ddfe0	-0.042449832
58	0x3d44f949	0.0480893
59	0xbd9f762c	-0.07786211
60	0xbdcf7945	-0.10130552
61	0xbcd31b26	-0.025769781
62	0xbd7b0606	-0.06128504
63	0x3d3adb3d	0.04561924
64	0x3cc83389	0.024438636
65	0xbe191a9e	-0.1495156
66	0x3d104ff2	0.03523249
67	0x3c2b2955	0.010446866
68	0x3b0193fc	0.0019772043
69	0x3e18004f	0.14843868
70	0xbd858620	-0.06519723
71	0xbd0b8ca4	-0.034069672
72	0x3da9f810	0.08299267
73	0xbddfd22d	-0.1092876
74	0x3df63356	0.1202151
75	0x3db01896	0.085984394
76	0xbb967c88	-0.004592482
77	0xbdd03de0	-0.10168052
78	0x3d883730	0.06651151
79	0x3dded2c1	0.10880042
80	0xbde36400	-0.11103058
81	0xbd6022c6	-0.054720663
82	0xbca7ae15	-0.020468751
83	0x3def7d20	0.116937876
84	0x3e00b97f	0.12570761
85	0xbcc6a5f3	-0.024249053
86	0x3d7e6b76	0.0621142
87	0x3c92d7ed	0.017925227
88	0xbcd8d037	-0.026466472
89	0x3df2d53c	0.118570775
90	0xbd7212bf	-0.05909991
91	0xbcab1291	-0.020882877
92	0x3e048b8e	0.12943861
93	0x3d04f076	0.032455884
94	0x3cc9003b	0.024536243
95	0x3dfc61e4	0.12323359
96	0xbde265ab	-0.11054548
97	0x3d773c28	0.060360104
98	0x3da71f2e	0.08160244
99	0xbdaf9123	-0.085726045
100	0x3d01fd3e	0.03173565
101	0xbe0d91a7	-0.13825093
102	0xbb24eae7	-0.0025164427
103	0xbbf37214	-0.0074293707
104	0x3cd8bb7d	0.026456589
105	0xbdfbeba3	-0.123008035
106	0xbd683213	-0.05668838
107	0x3dd12a42	0.10213138
108	0xbd01ac17	-0.03165826
109	0xbdebc07c	-0.11511323
110	0xbda742e3	-0.081670545
111	0x3c562173	0.013069498
112	0x3d94179c	0.07231066
113	0xbda561dc	-0.08075306
114	0xbcb173a8	-0.021661595
115	0xbd2d4bbf	-0.042308565
116	0xbd64f255	-0.05589517
117	0x3e0374b3	0.12837486
118	0xbd77edd6	-0.060529552
119	0x3d5ade82	0.053434856
120	0x3b2c4524	0.0026286328
121	0xbd8e87d5	-0.06959502
122	0x3e0adb4e	0.1356022
123	0x3d395448	0.045246392
124	0xbd9251a4	-0.07144478
125	0xbd8e758b	-0.06956013
126	0x3db1951f	0.08671021
127	0x3d8e9fcb	0.06964072
128	0xbdea2aef	-0.1143397
129	0xbc93cb85	-0.018041382
130	0xbd28ac41	-0.0411799
131	0xbe101b75	-0.14072974
132	0xbd391b59	-0.045192096
133	0xbbec536d	-0.0072120936
134	0xbe26da7d	-0.16294284
135	0xbd7af91d	-0.06127273
136	0x3e26e22e	0.16297218
137	0xbd0e86f2	-0.034796663
138	0x3c9bc9b1	0.019017072
139	0x3e850b79	0.25985315
140	0x3e1999dc	0.15000099
141	0x3dd53a97	0.10411566
142	0x3db4ae0b	0.088222586
143	0xbcaa1b63	-0.020765012
144	0xbdbb046d	-0.091317035
145	0x3d8665ad	0.06562362
146	0x3c96b66c	0.018397532
147	0x3d94460d	0.072399236
148	0x3d461ddf	0.04836833
149	0x3dca15b1	0.098674186
150	0xbaa39e9b	-0.0012483181
151	0x3d661661	0.056173686
152	0xbc7e597e	-0.015524266
153	0xbda111b7	-0.07864707
154	0x3d933e69	0.07189638
155	0xbd108cc4	-0.035290495
156	0xbdff108a	-0.124543265
157	0x3da54657	0.08070057
158	0xbcffbfbd	-0.031219358
159	0x3c90e5b3	0.017687654
160	0x3d2f3f95	0.042785246
161	0x3df3899e	0.11891483
162	0x3c6a6086	0.01430524
163	0x3cd0ac8a	0.025472898
164	0xbd4d1d8d	-0.05007701
165	0xbceea86a	-0.02913304
166	0x3c8feae6	0.017568063
167	0xbdbf8567	-0.09351616
168	0x3cefdf17	0.029281182
169	0xbd69ef22	-0.05711282
170	0x3d38dc61	0.045132045
171	0xbc9a0fde	-0.018806394
172	0x3832d670	4.2638218e-05
173	0xbd70fc9a	-0.05883465
174	0xbd87dd96	-0.06634061
175	0x3de6c379	0.11267752
176	0xbd061d61	-0.03274286
177	0xbd890124	-0.06689671
178	0xbbf22cb8	-0.007390585
179	0xbbc2594a	-0.0059310542
180	0xbd1e6c73	-0.038677644
181	0xbd612336	-0.05496522
182	0x3cfcc1c7	0.030854119
183	0x3d1895ba	0.037252165
184	0xbe01436a	-0.12623373
185	0x3d5fb9a6	0.054620408
186	0xbdfa2692	-0.12214388
187	0xbd5d50db	-0.054032188
188	0x3c52dbfc	0.012869831
189	0x3dca368e	0.09873687
190	0xbd41e7ae	-0.047340088
191	0x3dcfdb01	0.101491936
192	0x3d4b9b1b	0.049708467
193	0x3c358708	0.011079557
194	0xbdcc4522	-0.099741235
195	0xbc27060d	-0.010194314
196	0xbdd6bb6a	-0.10484965
197	0xbd69f927	-0.057122376
198	0x3d6b7bea	0.05749122
199	0x3d99d118	0.075105846
200	0xbd9abb3e	-0.07555245
201	0xbd909ef2	-0.070615664
202	0xbda3b823	-0.07994106
203	0xbc15a0b8	-0.009132557
204	0x3d758d7b	0.05994938
205	0x3dcd83ce	0.100349054
206	0xbdce7515	-0.100809254
207	0xbd004812	-0.03131873
208	0x3c406ddf	0.011744945
209	0x3dbdc01f	0.0926516
210	0x3ded142b	0.11576112
211	0x3d9a8533	0.07544937
212	0x3dd26db0	0.102748275
213	0x3dd79095	0.10525624
214	0xbd819109	-0.063264914
215	0xbe02e92f	-0.12784265
216	0xbce1b54b	-0.027552268
217	0x3d8584a6	0.06519441
218	0xbd2fdf1f	-0.042937394
219	0xbb4c158e	-0.0031140777
220	0x3d988783	0.07447722
221	0xbd8adc47	-0.06780296
222	0xbaff23c1	-0.0019465612
223	0xbd929e3a	-0.071590856
224	0xbdc90f60	-0.09817386
225	0x3dbca005	0.09210209
226	0xbd23419e	-0.0398575
227	0x3d19eabc	0.037577376
228	0x3dbcdf6d	0.092223026
229	0x3bd4c7da	0.0064935507
230	0xbccff34f	-0.025384573
231	0x3c2ad9d8	0.010427915
232	0xbdfd9c59	-0.123833366
233	0xbdaf69c6	-0.085650966
234	0xbe0325b1	-0.12807347
235	0x3da8ad8a	0.08236225
236	0x3ded5b4f	0.11589681
237	0x3d3a23fc	0.045444474
238	0x3da76520	0.08173585
239	0xbd8a9aad	-0.06767783
240	0xbdf833b0	-0.121192336
241	0xbddf4889	-0.10902507
242	0x3d98ed52	0.0746714
243	0x3d092620	0.033483624
244	0x3db06a5e	0.08614038
245	0x3d16f8e8	0.03685847
246	0x3da3f4e2	0.08005692
247	0x3d5ba0e0	0.05362022
248	0xbd82393b	-0.06358572
249	0xbd578bb6	-0.052623473
250	0xbd81f25d	-0.06345055
251	0xbd974dc2	-0.07387878
252	0xbe02d2e4	-0.12775761
253	0xbdb735cc	-0.08945808
254	0x3d976503	0.07392313
255	0xbc2f5e31	-0.010703609

res3.conv2.bias f4 [8]
0	0x3cb9272d	0.022601688
1	0xbd312093	-0.043243956
2	0xbcd6ba1a	-0.026211787
3	0x3dc73bfc	0.09728238
4	0x3d73fafb	0.059565526
5	0x3d940b52	0.07228722
6	0x3d12a7dc	0.035804614
7	0x3de4dbf5	0.11174766
